backend/data.pth (torch, 130431 bytes, 6 tensors)

l1.weight f4 [8, 2572]
-0.2141762 0.32956657 -0.40758207 -0.3189735 -0.16768987 0.28585452 -0.370646 0.09007198
0.41464022 0.11008713 0.123671584 0.66895664 -0.10478132 -0.94988596 7.681547 1.4641314
1.4562981 0.29533893 -0.12514575 0.8293506 -0.019712102 0.19750993 -0.2103749 -0.20650922
-0.6460696 -0.1824319 0.43228072 0.08351696 -0.29207596 -0.23264427 6.714132 0.55692947
-0.040633395 -0.6173415 -0.5554505 -0.11761655 -0.77105755 -1.187347 20.588953 1.3089383
0.618838 1.0416013 -2.350503 0.27138203 -0.2404577 -1.1493446 0.54035723 0.68526924
-0.6846423 0.95749027 -1.1298335 -1.1629902 -0.95492613 0.67752415 -0.8176528 -0.3306622
-0.80132705 -0.5749829 -0.48664814 2.6080122 -1.9424092 -1.3160183 4.9180145 -0.26992276
-0.5981045 0.000685189 -0.39271453 -0.56274617 0.84318584 0.6409828 0.37443954 -0.017530825
0.3760978 -1.0229229 -0.16153029 0.78231984 0.11881253 -0.8810015 1.9351844 0.5551117
0.10666914 -0.075857416 -1.2042325 -0.7249109 0.88173395 -0.17197756 4.4577694 -0.04481436
0.05135208 0.1066342 0.5329352 0.0860318 -0.072809406 -1.0614765 -1.0900581 -0.11759645
-0.10116815 0.05719033 3.8540301 0.13160366 0.39623412 0.20897257 0.5486214 2.3630266
0.13322337 1.1625141 0.71518564 0.30305856 -0.1585629 -0.03604906 1.1213628 3.8493989
0.08675857 0.5549788 -0.37299192 -0.9032416 1.0426766 -0.48062095 0.89629906 -0.59747326
0.03245644 -0.08473566 5.142417 -0.60248226 0.004870132 0.10125057 -0.04504361 -0.14361852
1.088932 -0.41188946 -0.13991208 -0.59186774 -0.20809126 0.17780109 -0.78659034 -0.28371027
-0.10087086 -0.67127335 0.07093575 4.9533296 -0.33717674 4.1898913 -0.0588598 0.40284866
0.32451195 0.05746114 -0.17820212 -0.2756317 -0.36767545 0.030117564 0.71941274 0.42264035
-0.055589408 0.06948959 0.40369308 -0.5828271 5.2905064 -0.84192336 0.55706644 -0.67288256
0.10902621 0.6616766 -0.03735041 -0.82017815 0.43512252 2.0478783 3.497674 -1.2918236
-0.5045803 -0.7196478 -0.2817447 -0.6927453 -0.1780733 6.0092063 -0.38659227 3.2637658
0.06723588 -0.15222514 5.0370946 0.97867864 -0.2877866 -0.024034796 -0.6446616 -0.61654764
-0.32347584 -4.6548133 -0.33276147 -1.161316 -0.24500668 -0.18910946 -0.53738153 -0.48722944
-0.45849305 -0.1565049 -0.039449938 -2.217141 0.50040066 -1.1356963 0.30875534 1.6925589
-0.19357659 -0.6939587 0.5362687 2.6159496 2.4403138 -0.87542975 0.06187842 -0.11777399
0.68788886 21.498125 0.29347005 7.240586 -0.091156796 0.51706886 0.18447053 5.526137
0.2966791 2.1758754 -0.40894186 -0.020581165 0.40299982 0.3167986 0.35279065 0.8854625
1.4406141 -0.38919836 5.024653 0.18261833 0.24843298 0.47925293 0.063689135 0.2390077
0.020532904 0.6692623 0.34842342 -0.44012713 -1.8056927 -0.17233244 -0.43791583 0.9921979
1.840014 0.5120081 0.38250446 -0.46225944 0.06416324 0.41114366 0.47532 0.27110577
0.6788956 -0.069398746 -0.6648408 -0.13656639 -0.2335803 -0.42181212 0.4650717 0.1133486
00000000: 0151 5bbe f3bc a83e 99ae d0be 7f50 a3be
00000010: e5b6 2bbe 865b 923e 50c5 bdbe a977 b83d
00000020: b94b d43e 5c75 e13d 8747 fd3d be40 2b3f
00000030: 9797 d6bd ba2b 73bf 3ccf f540 a868 bb3f
00000040: fa67 ba3f aa36 973e 3526 00be 5250 543f
00000050: 467b a1bc 0b40 4a3e 856c 57be 2777 53be
00000060: d164 25bf 6ecf 3abe e653 dd3e f10a ab3d
00000070: fb8a 95be 4d3a 6ebe 2bda d640 ee92 0e3f
00000080: 346f 26bd 180a 1ebf 0132 0ebf f2e0 f0bd
00000090: 0764 45bf fdfa 97bf 2db6 a441 4a8b a73f
000000a0: 2b6c 1e3f 3153 853f a46e 16c0 96f2 8a3e
000000b0: 8b3a 76be b91d 93bf da54 0a3f ce6d 2f3f
000000c0: b844 2fbf 151e 753f 629e 90bf dddc 94bf
000000d0: 0a76 74bf 3972 2d3f b251 51bf 8e4c a9be
000000e0: c523 4dbf 1432 13bf f229 f9be ace9 2640
000000f0: dda0 f8bf 4a73 a8bf 6060 9d40 5133 8abe
00000100: 601d 19bf 419e 333a e111 c9be 2210 10bf
00000110: 07db 573f 7317 243f 8ab6 bf3e ce9c 8fbc
00000120: e48f c03e 23ef 82bf 3268 25be 1d46 483f
00000130: fc53 f33d 5089 61bf 1fb4 f73f cd1b 0e3f
00000140: 5a75 da3d 225b 9bbd 4a24 9abf c393 39bf
00000150: 51b9 613f e31a 30be 0ca6 8e40 438f 37bd
00000160: 8f56 523d 0863 da3d 716e 083f 7131 b03d
00000170: 191d 95bd 76de 87bf 0687 8bbf 68d6 f0bd
00000180: 3f31 cfbd 6840 6a3d 6ea8 7640 1cc3 063e
00000190: 33df ca3e e8fc 553e 7472 0c3f d43b 1740
000001a0: b56b 083e 43cd 943f 6816 373f 7e2a 9b3e
000001b0: 505e 22be 2ea8 13bd d188 8f3f 8d5c 7640
000001c0: 7aae b13d 1713 0e3f ccf8 bebe d73a 67bf
000001d0: 6d76 853f f313 f6be db73 653f 02f4 18bf
000001e0: 0bf1 043d e489 adbd ae8e a440 473c 1abf
000001f0: a195 9f3b 755c cf3d a67f 38bd bc10 13be
00000200: 2062 8b3f 2de3 d2be 1d45 0fbe a584 17bf
00000210: e015 55be 7d11 363e fc5d 49bf 7942 91be
00000220: 6295 cebd 92d8 2bbf c346 913d ad81 9e40
00000230: 6ea2 acbe 9713 8640 f916 71bd 2e42 ce3e
00000240: 6e26 a63e 5f5c 6b3d 9e7a 36be 991f 8dbe
00000250: f53f bcbe 1cb9 f63c 6f2b 383f 5164 d83e
00000260: b8b1 63bd 8f50 8e3d dcb0 ce3e 2834 15bf
00000270: d44b a940 4a88 57bf e89b 0e3f 0842 2cbf
00000280: 2249 df3d a363 293f befc 18bd 32f7 51bf
00000290: 61c8 de3e 7010 0340 e4d9 5f40 7a5a a5bf
000002a0: 2d2c 01bf d73a 38bf d740 90be c257 31bf
000002b0: d958 36be 6b4b c040 6cef c5be 8ae1 5040
000002c0: f7b2 893d e8e0 1bbe e12f a140 af8a 7a3f
000002d0: c458 93be 9fe4 c4bc 8b08 25bf 11d6 1dbf
000002e0: a09e a5be 3bf4 94c0 b65f aabe 01a6 94bf
000002f0: 08e3 7abe e9a5 41be d691 09bf 2376 f9be
00000300: 9abf eabe d242 20be 4296 21bd a3e5 0dc0
00000310: 421a 003f 7f5e 91bf 2e15 9e3e c5a5 d83f
00000320: f138 46be 47a7 31bf e848 093f b86b 2740
00000330: 1a2e 1c40 2a1c 60bf 3a74 7d3d 7d33 f1bd
00000340: 7c19 303f 29fc ab41 b541 963e e1b2 e740
00000350: 6ab0 babd a05e 043f d8e5 3c3e 1dd6 b040
00000360: 53e6 973e 8b41 0b40 d460 d1be d599 a8bc
00000370: fe55 ce3e 6d33 a23e faa0 b43e acad 623f
00000380: 0b66 b83f 0245 c7be f5c9 a040 4d00 3b3e
00000390: 3765 7e3e a460 f53e 736f 823d 6fbe 743e
000003a0: 9f34 a83c c654 2b3f 8e64 b23e 5858 e1be
000003b0: f020 e7bf ea77 30be 8136 e0be ae00 7e3f
000003c0: 9485 eb3f f612 033f a0d7 c33e 45ad ecbe
000003d0: 0468 833d 6c81 d23e 255d f33e 60ce 8a3e
000003e0: 1acc 2d3f ee20 8ebd 0233 2abf 0fd8 0bbe
000003f0: ad2f 6fbe c2f7 d7be e11d ee3e 5023 e83d

l1.bias f4 [8]
0.8410724 0.66360134 2.421729 1.2439933 2.2260168 1.2815619 0.8815076 1.3062108
00000000: 8550 573f c7e1 293f 9cfd 1a40 2c3b 9f3f
00000010: 0f77 0e40 380a a43f 7baa 613f ea31 a73f

l2.weight f4 [8, 8]
-0.22940563 0.035604272 0.231821 0.17677444 1.0081582 0.25380972 -0.43252602 -0.70768297
0.056863133 -0.2721375 0.27664214 -0.04517362 0.7508922 -0.3377748 0.005157688 0.74070907
0.700228 0.4300423 0.48982954 -0.38491046 0.12549847 0.17741671 0.26186934 -0.5681998
-0.11717843 1.0281125 -0.19114323 0.30634716 -0.04454079 -0.11081785 0.13192296 0.18064806
0.44563434 0.21742186 -0.2201974 0.03784094 -0.10222522 0.76021427 -0.479434 0.42714092
-0.43635502 -0.101970874 0.24033038 0.2557878 -0.19016065 0.72118 0.54210234 3.861799e-05
0.6325566 -0.29875055 -0.4530866 0.3877852 0.2174448 0.108974524 0.354717 -0.1879825
0.23500782 -0.07739941 0.73455185 0.58817023 -0.37611848 -0.17449185 -0.16313706 -0.013955962
00000000: 4fe9 6abe c9d5 113d 7c62 6d3e 5c04 353e
00000010: 540b 813f 59f3 813e 0d74 ddbe b62a 35bf
00000020: 51e9 683d 9b55 8bbe 0aa4 8d3e f907 39bd
00000030: 793a 403f d2f0 acbe d301 a93b 1c9f 3d3f
00000040: 2442 333f 812e dc3e f0ca fa3e fc12 c5be
00000050: ac82 003e baac 353e bd13 863e 8b75 11bf
00000060: 3ffb efbd 3199 833f 0dbb 43be 89d9 9c3e
00000070: 6770 36bd 78f4 e2bd d016 073e cefb 383e
00000080: 2f2a e43e d6a3 5e3e 6d7b 61be 1aff 1a3d
00000090: 755b d1bd 679d 423f 6078 f5be 37b2 da3e
000000a0: ed69 dfbe 1bd6 d0bd 2b19 763e 9ef6 823e
000000b0: 79b9 42be 419f 383f 38c7 0a3f c0f9 2138
000000c0: 3bef 213f d5f5 98be f8fa e7be c88b c63e
000000d0: daa9 5e3e 092e df3d 779d b53e 7c7e 40be
000000e0: e4a5 703e 9583 9ebd 970b 3c3f 5392 163f
000000f0: 9a92 c0be fead 32be 670d 27be 8ca7 64bc

l2.bias f4 [8]
2.7008107 -0.55032814 -0.9130482 -0.64073306 -0.56241375 -0.65597796 0.7933671 0.9965994
00000000: 15da 2c40 4ee2 0cbf 87bd 69bf 1507 24bf
00000010: 59fa 0fbf 2cee 27bf 1b1a 4b3f 2321 7f3f

l3.weight f4 [110, 8]
2.088505 2.3180244 -1.1867679 -1.6491671 -7.554271 -14.077945 -18.138748 -0.94968975
0.04271703 -0.22103222 0.088199764 0.50719035 -0.10309803 -0.20443311 -0.8729672 -0.4821591
1.4006186 -2.4195263 -14.284873 -21.082216 -18.841473 4.1168404 3.6216946 -1.037502
-0.13756897 0.3152707 0.29605144 -10.984084 -0.03137047 -8.8168955 -0.2808213 -0.6225547
-0.23868136 -0.12650491 -0.09043578 -1.4633731 -0.59719485 -0.06090784 0.61949354 0.13409692
-0.37836266 -0.44583207 -0.2768799 -0.1673108 0.5370542 -0.13148405 -0.14330746 0.5240699
1.3247504 1.6950364 -20.630632 -0.46646154 -1.5842168 -2.5205908 -18.012848 0.5760758
-1.1320094 -0.5113127 -1.0056419 0.26774448 0.46415147 -0.27901402 0.60205567 -0.32401863
-12.6911 0.35998368 -21.66448 0.12520586 0.09605472 -0.37727708 -0.35408676 0.19014171
1.6848805 -0.4688782 -2.209101 -20.10564 -5.5378246 2.06822 -6.53541 1.2874755
-0.10819454 -0.6559372 0.20576009 0.04694667 0.84359866 -1.3971364 -0.79842514 -1.0611032
0.41730937 -0.026840838 -17.551315 -1.3532201 0.33790994 0.275103 -0.25536698 0.18949543
1.657877 4.377087 -9.479991 -26.101671 -27.051727 -4.316707 0.43440098 -0.82494277
3.625135 -1.1456068 1.7919655 -14.55003 -6.6069393 1.2430736 -2.6878493 -6.505345
3.1773372 -5.9535375 1.4951105 -21.062555 -13.90238 -3.5433958 1.4022561 -0.16434483
0.49825674 1.5999843 -21.006516 1.2151868 -8.420942 -2.8127892 -0.6727669 1.2518935
-0.34798685 -0.053494 -0.2842706 0.3013024 -0.18051694 0.2842486 0.02180427 0.24722674
-0.04800284 0.38697422 -27.62738 -0.26445675 -0.5934831 0.5874682 -0.6700263 0.2225762
-0.36928314 -0.1535524 -0.61895704 -1.8212012 -0.35697713 0.7541814 0.6298453 0.03714954
0.39093184 2.0477555 -0.54188454 -3.878766 -14.034698 -7.551694 -0.8559735 1.0252553
-0.027086273 0.3798114 -0.39128545 0.26067373 -0.4535492 -22.626406 -0.45661998 -0.3678035
0.9790389 0.86787057 -0.5733794 -24.83035 -19.355055 -18.139715 2.3751488 1.4800491
3.6337047 0.8383824 -7.196504 -3.6369114 -4.1197085 -12.030984 1.7259566 -23.796885
3.4894142 0.43998787 -0.31103605 -3.045195 -20.255264 -7.3533254 -1.0112683 -17.739416
2.220057 -1.8973954 -0.33714262 3.134422 -16.209476 -5.614991 -3.958857 -14.933584
-5.6234155 0.490371 -9.087194 -7.885232 0.37749416 -2.4143224 -11.600342 2.4943907
-0.30142048 0.7175485 -4.8876066 3.6145473 -4.801787 -9.876005 0.2789995 -12.71321
1.0923464 0.4170707 -19.68366 1.7303048 -1.1396356 -4.7575865 -1.8059003 -1.187795
4.056683 -16.11721 -1.0013185 -17.452135 -1.388566 0.15229894 -2.2232332 -5.7790704
2.3262005 -2.2465105 1.3564333 -1.0024922 -1.4629501 0.91352093 -11.348237 -10.488825
1.4009514 -0.69588387 -2.4335194 2.2620857 0.7101328 -15.079469 -16.901558 -13.795288
1.2664816 -0.6910752 -11.403875 1.2462366 0.25488767 -4.2505317 2.5315707 -12.819583
00000000: 11aa 0540 835a 1440 03e8 97bf e817 d3bf
00000010: 97bc f1c0 433f 61c1 281c 91c1 de1e 73bf
00000020: 0df8 2e3d 4556 62be 14a2 b43d 3ad7 013f
00000030: 0f25 d3bd ea56 51be c77a 5fbf 8fdd f6be
00000040: 7847 b33f 85d9 1ac0 d78e 64c1 61a8 a8c1
00000050: 56bb 96c1 28bd 8340 d8c9 6740 decc 84bf
00000060: e1de 0cbe 296b a13e 0e94 973e cfbe 2fc1
00000070: 527e 00bd 0112 0dc1 cfc7 8fbe bf5f 1fbf
00000080: e368 74be 818a 01be 6536 b9bd cf4f bbbf
00000090: c3e1 18bf 807a 79bd 2197 1e3f b450 093e
000000a0: c0b8 c1be 1a44 e4be 34c3 8dbe 8653 2bbe
000000b0: 627c 093f c1a3 06be 31bf 12be 7229 063f
000000c0: 6c91 a93f f4f6 d83f 890b a5c1 0cd4 eebe
000000d0: 9ec7 cabf 5c51 21c0 501a 90c1 b479 133f
000000e0: afe5 90bf 64e5 02bf e0b8 80bf ce15 893e
000000f0: 43a5 ed3e edda 8ebe 5220 1a3f c5e5 a5be
00000100: bf0e 4bc1 c84f b83e db50 adc1 f735 003e
00000110: 56b8 c43d 762a c1be dc4a b5be 82b4 423e
00000120: 2aaa d73f ce10 f0be e961 0dc0 5ad8 a0c1
00000130: dc35 b1c0 b75d 0440 1422 d1c0 ffcb a43f
00000140: 1995 ddbd 80eb 27bf c6b2 523e 274b 403d
00000150: 15f6 573f 5ed5 b2bf 9765 4cbf 3bd2 87bf
00000160: 93a9 d53e 51e1 dbbc 1869 8cc1 5136 adbf
00000170: 8802 ad3e 4dda 8c3e 76bf 82be 170b 423e
00000180: 5035 d43f 1911 8c40 0bae 17c1 39d0 d0c1
00000190: f069 d8c1 7722 8ac0 ce69 de3e 732f 53bf
000001a0: 3602 6840 3ea3 92bf 205f e53f eccc 68c1
000001b0: 0c6c d3c0 091d 9f3f b905 2cc0 c92b d0c0
000001c0: 7e59 4b40 6183 bec0 c85f bf3f 1d80 a8c1
000001d0: 2670 5ec1 ffc6 62c0 217d b33f 034a 28be
000001e0: 821b ff3e 49cc cc3f 580d a8c1 3e8b 9b3f
000001f0: 2ebc 06c1 bd04 34c0 743a 2cbf 0c3e a03f
00000200: 552b b2be 861c 5bbd eb8b 91be 4f44 9a3e
00000210: 6fd9 38be 0889 913e de9e b23c 0229 7d3e
00000220: a09e 44bd 7c21 c63e e004 ddc1 e066 87be
00000230: 82ee 17bf 5164 163f d886 2bbf 04eb 633e
00000240: ae12 bdbe d73c 1dbe f873 1ebf 1f1d e9bf
00000250: b5c5 b6be 0812 413f 8b3d 213f 1e2a 183d
00000260: 3828 c83e 6d0e 0340 f2b8 0abf b43d 78c0
00000270: 1f8e 60c1 7aa7 f1c0 1421 5bbf 913b 833f
00000280: 08e4 ddbc a476 c23e 9156 c8be 0777 853e
00000290: 9a37 e8be e102 b5c1 18ca e9be be50 bcbe
000002a0: 4ba2 7a3f c42c 5e3f fec8 12bf 8fa4 c6c1
000002b0: 27d7 9ac1 231e 91c1 7002 1840 4072 bd3f
000002c0: 9e8e 6840 3ba0 563f c349 e6c0 28c3 68c0
000002d0: a7d4 83c0 e97e 40c1 25ec dc3f 0560 bec1
000002e0: 9052 5f40 1746 e13e 1e40 9fbe 7ae4 42c0
000002f0: c80a a2c1 714e ebc0 3d71 81bf 53ea 8dc1
00000300: 6a15 0e40 dadd f2bf f59d acbe 5f9a 4840
00000310: 02ad 81c1 02ae b3c0 ea5d 7dc0 f6ef 6ec1
00000320: 05f3 b3c0 e811 fb3e 2665 11c1 d253 fcc0
00000330: ea46 c13e 4284 1ac0 009b 39c1 19a4 1f40
00000340: c953 9abe 42b1 373f 4667 9cc0 be54 6740
00000350: 3da8 99c0 1e04 1ec1 06d9 8e3e 4f69 4bc1
00000360: 02d2 8b3f 4a8a d53e 2378 9dc1 a17a dd3f
00000370: 94df 91bf 263e 98c0 be27 e7bf ab09 98bf
00000380: 59d0 8140 0cf0 80c1 342b 80bf f99d 8bc1
00000390: 88bc b1bf 41f4 1b3e 7449 0ec0 25ee b8c0
000003a0: 78e0 1440 d4c6 0fc0 9b9f ad3f aa51 80bf
000003b0: f341 bbbf 82dc 693f 6192 35c1 3ad2 27c1
000003c0: 6052 b33f 7225 32bf c8be 1bc0 03c6 1040
000003d0: 43cb 353f 8145 71c1 6436 87c1 80b9 5cc1
000003e0: 121c a23f 4eea 30bf 4676 36c1 ae84 9f3f
000003f0: a380 823e 5b04 88c0 4105 2240 031d 4dc1

l3.bias f4 [110]
3.4546843 -0.837937 3.388736 -1.3056256 1.4698942 -0.43473637 -0.16521528 1.6209259
-0.4034062 1.8181871 0.29684615 1.2662389 0.61920184 -0.47563946 4.144053 0.40386736
-2.2993023 -1.3994173 -1.616508 3.1406517 -0.6600901 2.0962355 3.25427 4.8830466
5.219893 1.1877894 0.78917265 -0.007557212 7.876805 3.6253128 1.7826713 0.78215843
0.9910666 2.9418886 5.553487 -0.5624007 -0.3858372 2.0607433 -0.9678639 -1.8977903
-2.9592505 2.3252323 0.94677246 0.1265254 3.1879408 3.2259586 4.231726 4.757336
1.5001863 1.8462859 1.2807107 3.0973375 4.7274194 -3.2120652 -0.90235865 1.5402862
3.506775 -2.0748143 5.8538203 0.9255004 -1.1886389 0.031848654 -1.1960399 0.3994786
3.3115907 5.298284 -0.15916315 -2.3762605 -1.3982309 1.1645224 2.841796 -0.01705323
2.2918594 0.09365509 0.09796794 5.4359446 3.8144767 5.728719 2.3927975 2.5082679
2.8421583 -0.18640408 0.77905357 -2.4264896 -0.28737763 -0.61621124 0.17765923 -1.2288938
2.7244341 -0.7081873 0.1301778 -1.7948067 -1.2662944 -0.39085898 1.5670019 -0.66139305
0.98329455 4.9946103 1.7027673 -1.5036165 2.717752 3.2054653 0.23541284 -0.4498375
4.5686197 -5.368079 3.1219091 -1.3845525 3.591034 2.9915116
00000000: 8c19 5d40 0a83 56bf 0de1 5840 bd1e a7bf
00000010: 7e25 bc3f c495 debe 322e 29be 807a cf3f
00000020: 428b cebe 5bba e83f 38fc 973e 1e14 a23f
00000030: 0384 1e3f 0487 f3be 159c 8440 b4c7 ce3e
00000040: c527 13c0 1b20 b3bf bce9 cebf 7000 4940
00000050: aafb 28bf b928 0640 f645 5040 eb41 9c40
00000060: 5d09 a740 7c09 983f 3807 4a3f 7da2 f7bb
00000070: c90e fc40 2005 6840 932e e43f 893b 483f
00000080: 8ab6 7d3f e747 3c40 2ab6 b140 7ef9 0fbf
00000090: 748c c5be 38e3 0340 eec5 77bf cbea f2bf
000000a0: 5c64 3dc0 9bd0 1440 ae5f 723f e08f 013e
000000b0: 3907 4c40 1b76 4e40 4d6a 8740 193c 9840
000000c0: 1b06 c03f 1953 ec3f 54ee a33f c73a 4640
000000d0: 0547 9740 7a92 4dc0 fa00 67bf 1928 c53f
000000e0: 006f 6040 c2c9 04c0 7f52 bb40 98ed 6c3f
000000f0: 5225 98bf bc73 023d d617 99bf 7688 cc3e
00000100: 1af1 5340 8b8b a940 aafb 22be a714 18c0
00000110: 3bf9 b2bf 120f 953f fcdf 3540 37b3 8bbc
00000120: d3ad 1240 3dce bf3d 6aa3 c83d 42f3 ad40
00000130: 6320 7440 ab51 b740 9823 1940 7687 2040
00000140: ece5 3540 b6e0 3ebe 0e70 473f 9b4b 1bc0
00000150: 2923 93be 05c0 1dbf 4dec 353e 644c 9dbf
00000160: 215d 2e40 c34b 35bf 544d 053e 3abc e5bf
00000170: ef15 a2bf ab1e c8be 8593 c83f 0e51 29bf
00000180: 31b9 7b3f d9d3 9f40 47f4 d93f 8176 c0bf
00000190: a6ef 2d40 5826 4d40 1010 713e 1a51 e6be
000001a0: 2232 9240 4ec7 abc0 5ccd 4740 0439 b1bf
000001b0: 80d3 6540 ed74 3f40
