backend/app/ml/cached_model_states/data1.pth (torch, 130431 bytes, 6 tensors)

l1.weight f4 [8, 2572]
0	0xbf1380e0	-0.5761852
1	0xbcdc2a45	-0.026875624
2	0xbd6b3322	-0.05742181
3	0xbee68b3e	-0.45028108
4	0xbc8a8550	-0.016909271
5	0x3af4ee80	0.0018686801
6	0xbf701eab	-0.93796796
7	0xbe80f3f4	-0.2518612
8	0x3ef2d7f1	0.47430375
9	0x3eaf28ca	0.34210807
10	0x3eacf12e	0.33777755
11	0x3f48c65d	0.7842768
12	0x3d3ad7c9	0.045615945
13	0x3f0ef581	0.5584336
14	0x3fadc01e	1.3574255
15	0xbf732920	-0.94984627
16	0xbf74185a	-0.9534966
17	0x3ea4868a	0.32133895
18	0xbdbf0659	-0.093273826
19	0x3d9e4e30	0.07729757
20	0xbe67a39f	-0.2262101
21	0x3f27c143	0.6552927
22	0x3e5d6d6d	0.21623774
23	0x3ed73dbd	0.4203929
24	0xbee0a552	-0.4387613
25	0x3fb9920d	1.4497696
26	0x3f314da6	0.6925911
27	0xbe324146	-0.17407712
28	0x3d949773	0.07255449
29	0xbe4de52b	-0.20106952
30	0xbef7774c	-0.48333204
31	0x3f1d2021	0.6137715
32	0x3f074b58	0.5284934
33	0x3e305ff7	0.17224108
34	0x3faf72b2	1.3706877
35	0xbf009ee6	-0.5024246
36	0xbdac20f0	-0.0840472
37	0xbd44c168	-0.04803601
38	0x40f029d8	7.505108
39	0x3e0e4c5f	0.13896321
40	0xbdbe3a30	-0.09288442
41	0x3f59a533	0.850177
42	0xbeab8361	-0.33498672
43	0xbe530936	-0.20608982
44	0xbf5144ed	-0.817458
45	0xbfcf752b	-1.6207632
46	0xbe693cf2	-0.22777155
47	0xbdfea382	-0.124335304
48	0xbdd7f854	-0.10545412
49	0x3f65c2ef	0.8975057
50	0xbfcfaaa9	-1.6223956
51	0xbfcf7623	-1.6207927
52	0x3e2834b6	0.16426358
53	0xbcffb561	-0.031214418
54	0xbdb12449	-0.08649499
55	0xbdc854de	-0.09781812
56	0xbd9d1a43	-0.07671025
57	0xbf64e410	-0.89410496
58	0xbd3cfeaf	-0.046141323
59	0x3fc4ebcb	1.5384458
60	0x3ead51d0	0.3385148
61	0x3d7af9cf	0.061273392
62	0x3fb7b978	1.4353476
63	0xbe90e4d2	-0.28299576
64	0x3f189367	0.5959992
65	0xbeffd484	-0.49966824
66	0xbd6089c9	-0.054818902
67	0x3ea76298	0.3269241
68	0x3e49a475	0.19691642
69	0x3f50b26d	0.81522256
70	0xbdb472ed	-0.08810983
71	0x3ecd9f27	0.40160486
72	0x3d7a2644	0.06107165
73	0x3da45e29	0.08025772
74	0xbf24f61f	-0.6443805
75	0xbd3dc7f7	-0.04633328
76	0x3d4d68c3	0.050148737
77	0x3f748de6	0.9552902
78	0x3f3e64f9	0.7437282
79	0xbf8d4a40	-1.1038284
80	0x3eafa57b	0.3430594
81	0x3e97b8b1	0.29633096
82	0x3f1b7446	0.60724294
83	0xc0020101	-2.0313113
84	0xbe399c26	-0.18125972
85	0x3e69c6b8	0.22829711
86	0x3f99c48a	1.2013104
87	0x3f0dfcfd	0.55464154
88	0x3da6df73	0.08148088
89	0xbeee3418	-0.4652412
90	0xbe797ca8	-0.24363959
91	0x3d050a0d	0.03248029
92	0xbd91fa36	-0.07127802
93	0xbe2246b9	-0.15847291
94	0x3edfc6d7	0.4370639
95	0x3e4c1ad4	0.19932109
96	0x3ededc16	0.43527287
97	0x3fe20e01	1.7660524
98	0xbf7aba33	-0.9794037
99	0x3cf6efd7	0.030143661
100	0x3e9b3f40	0.30321693
101	0xbea9692d	-0.33088055
102	0xbdb98885	-0.09059242
103	0x4049d8d5	3.1538594
104	0x3e6e9f99	0.23303069
105	0x410af0e7	8.683814
106	0x3d61ecac	0.05515735
107	0xbf356b46	-0.7086681
108	0xbe5812cb	-0.21100919
109	0x3e1ab60d	0.1510851
110	0x3e933b98	0.28756404
111	0xbf77e2fd	-0.9683073
112	0xbefe3d0a	-0.49655944
113	0xbf09096e	-0.53530014
114	0x3f96ade9	1.1771823
115	0xbf01bbf9	-0.5067745
116	0x3d0401aa	0.03222815
117	0xbde8156c	-0.11332211
118	0x3d811449	0.06302697
119	0x3e0a4f0d	0.13506718
120	0xbef5e675	-0.48027387
121	0x3e28d842	0.16488746
122	0x3fb6c1c9	1.4277889
123	0xbecdff2b	-0.4023374
124	0xbee24a8d	-0.44197503
125	0xbf17a5d1	-0.5923739
126	0xbebdb20a	-0.37049896
127	0x3ef1abf9	0.47201517
128	0xbdb976ef	-0.09055888
129	0x3eada92d	0.33918133
130	0x3d0de80b	0.03464512
131	0xbfe1f276	-1.7652118
132	0xbf311f11	-0.6918803
133	0x3f04a370	0.51811886
134	0xbeeb6c85	-0.4598123
135	0xbe16f3cf	-0.14741443
136	0xbefd2f13	-0.49449977
137	0xbfd19087	-1.6372231
138	0xbd95ecd2	-0.073205605
139	0xc00737c0	-2.1127777
140	0xbcf4202c	-0.029800497
141	0xbed724f4	-0.4202038
142	0x3e356dca	0.17717662
143	0x3efa9856	0.48944348
144	0x3f951b59	1.1648971
145	0xbecd68e2	-0.40119082
146	0xbf2fa34e	-0.6860856
147	0xbf0d1c4c	-0.551213
148	0xbd85a631	-0.06525839
149	0x3f336eca	0.70090926
150	0x3f3342b2	0.70023644
151	0x3f01bff9	0.5068355
152	0x3d915520	0.070963144
153	0x3ce5269b	0.02797251
154	0x3f971210	1.1802387
155	0x3bf889d6	0.0075847907
156	0xbfe7fbe1	-1.8123742
157	0xbfa6cb5c	-1.303081
158	0x40abe560	5.37175
159	0x3dabc90f	0.08387958
160	0x3ea0ceb6	0.31407708
161	0xbf944dce	-1.1586244
162	0x3e2f884d	0.17141838
163	0xbd8e173e	-0.06938027
164	0xbfe18ff2	-1.7622054
165	0xbf501ad7	-0.81290954
166	0xc024a47d	-2.5725396
167	0x3f420149	0.7578321
168	0xbe26003e	-0.1621103
169	0xbed6eed1	-0.41979077
170	0xbeb47552	-0.35245758
171	0x3fedcb70	1.8577709
172	0x3e1a2b73	0.15055637
173	0xbf0e65a1	-0.55623823
174	0xbf1fa246	-0.62356985
175	0x3e8ddf6a	0.27709514
176	0x3d0f2e1d	0.034956086
177	0xbf1815ec	-0.5940845
178	0x3f220434	0.63287663
179	0x3dcb4dab	0.09926923
180	0xbf300440	-0.68756485
181	0x3de499a3	0.111621164
182	0xbf6d6776	-0.92735994
183	0x3da79bf6	0.08184044
184	0xbe8d8951	-0.27643827
185	0x3fe295fa	1.7702019
186	0x3ef193b5	0.47183004
187	0x3f2e0e92	0.6799098
188	0xbe215c45	-0.15757854
189	0x3e620a03	0.22074132
190	0x3e1851fa	0.14875022
191	0x3ed51669	0.4161866
192	0x3fb8c0f5	1.4433886
193	0xbd711aa1	-0.058863286
194	0x3d96fb3f	0.0737214
195	0xbfb35331	-1.4009763
196	0x3e463bfe	0.19358823
197	0x3f30fa4c	0.6913192
198	0x3eee0e7b	0.46495423
199	0xbe74976e	-0.23885891
200	0xbe565438	-0.20930564
201	0xbe6baaa6	-0.23014316
202	0xbf0592e3	-0.52177256
203	0x3fc2978b	1.5202497
204	0x4081cd74	4.0563297
205	0xbfa547ac	-1.2912498
206	0xbe39f6aa	-0.18160501
207	0xbd1de0c7	-0.038544443
208	0xbe47830b	-0.19483583
209	0x3fa01b91	1.2508413
210	0xbeb4b0c2	-0.35291106
211	0x3f6f45e7	0.9346604
212	0x3e26f68e	0.1630499
213	0x3efbc106	0.49170703
214	0xbf365ce2	-0.7123548
215	0xbeeda277	-0.46413013
216	0xbf2726ae	-0.65293396
217	0x40065d58	2.0994473
218	0xbe86bd43	-0.2631627
219	0x3e15a8fc	0.14615244
220	0xbecba2ac	-0.39772546
221	0x3d1feeb0	0.03904599
222	0x3f84fcfc	1.0389705
223	0x40bd326c	5.912405
224	0x3f6e0670	0.9297857
225	0xbf143cc6	-0.5790523
226	0x3f1f7be2	0.62298405
227	0xbea622cb	-0.3244842
228	0xbf117b63	-0.568289
229	0x3ea3296c	0.3186754
230	0x3f67b7c2	0.9051477
231	0x3eac9741	0.33709148
232	0x3dd6e059	0.1049201
233	0xbe1f7c57	-0.15574776
234	0x3f05c90e	0.5225991
235	0xbf158864	-0.5841124
236	0xbf34ac90	-0.7057581
237	0x3eb20eeb	0.34777007
238	0xbed4734b	-0.41494212
239	0x3f57dd09	0.8432165
240	0xbf8efc70	-1.1170788
241	0x3e61e3db	0.22059576
242	0x3fab2515	1.3370692
243	0x3fe4b1c4	1.786675
244	0xbd8a8bf5	-0.06764976
245	0xbe530074	-0.20605642
246	0x3f83d3a8	1.0298967
247	0xbdac3662	-0.0840881
248	0x3e4d1ee9	0.20031323
249	0x3f4c83f0	0.7988882
250	0x3ff0c872	1.8811171
251	0x3fdc76b6	1.7223728
252	0xbf1e2e57	-0.6178946
253	0xbf0fa922	-0.5611745
254	0x3f81a0a8	1.0127153
255	0xbf11fd11	-0.57026774

l1.bias f4 [8]
0	0x3f8d40f0	1.1035442
1	0x3ff554a5	1.9166456
2	0x3f8be56b	1.0929388
3	0x3fc3c5b2	1.5294707
4	0x3f8b85c3	1.0900196
5	0x3f93b7ee	1.1540506
6	0x3f77c3cb	0.9678313
7	0x3f91a224	1.1377606

l2.weight f4 [8, 8]
0	0x3e59cbd5	0.21269162
1	0x3ec03ed9	0.3754795
2	0x3ee7b96b	0.4525865
3	0x3f3244d5	0.6963628
4	0xbf022e4f	-0.5085191
5	0x3dbf69ad	0.09346328
6	0x3edee3c6	0.43533152
7	0xbf0704af	-0.5274152
8	0xbebed9ec	-0.37275636
9	0xbe8d26d7	-0.27568695
10	0x3f146512	0.5796672
11	0x3e86aa33	0.26301727
12	0x3f414e40	0.75510025
13	0x3f0965be	0.5367087
14	0xbedceb9d	-0.4314851
15	0xbe63e63e	-0.22255799
16	0x3f34d611	0.7063914
17	0xbcf0e4db	-0.029406002
18	0x3d52d20e	0.051469855
19	0x3e9de3f0	0.30837965
20	0x3e832741	0.25615886
21	0xbd2fb9fc	-0.042901978
22	0xbeb0503c	-0.34436214
23	0x3f0ee19e	0.55813015
24	0x3e43bb4c	0.19114417
25	0x3f23ffb2	0.64062035
26	0x3e9310b3	0.28723678
27	0xbe745665	-0.23861082
28	0x3f0d080a	0.5509039
29	0xbe6a6480	-0.228899
30	0x3f0a755c	0.54085326
31	0xbe286793	-0.1644576
32	0x3e9d1dcd	0.306868
33	0x3d7133b2	0.05888719
34	0xbf03de3c	-0.5151098
35	0x3b506f77	0.003180472
36	0x3d42a0b0	0.047516525
37	0x3f2a88ce	0.66615
38	0x3ec9d3f1	0.3941951
39	0xbe105419	-0.1409458
40	0xbec2c843	-0.38043413
41	0xbe70b9f3	-0.23508434
42	0x3ebb5dd9	0.36595038
43	0xbe05724a	-0.13031879
44	0xbdf25c1b	-0.11833974
45	0x3eb21f0b	0.3478931
46	0x3ed3f99d	0.41401377
47	0x3f4861f1	0.78274447
48	0x3d5b5425	0.053547043
49	0x3f84b67a	1.0368187
50	0x3dcf2f90	0.10116494
51	0xbeaa788f	-0.33295104
52	0xbeb37e95	-0.35057512
53	0x3e9d0f05	0.30675521
54	0xbe9e85d9	-0.30961493
55	0x3e835789	0.25652722
56	0xbebde9bd	-0.3709239
57	0x3eb82dfc	0.35972583
58	0xbf1cae0d	-0.6120308
59	0x3f3b0b6e	0.73064315
60	0x3e4ba711	0.1988795
61	0xbe3d2a45	-0.18473156
62	0x3dd74c82	0.105126396
63	0x3daaa8da	0.08332987

l2.bias f4 [8]
0	0xbf402cb9	-0.7506824
1	0xbde41d02	-0.11138345
2	0xbffa8419	-1.9571563
3	0xbfd41333	-1.6568359
4	0x3e4c89f9	0.19974507
5	0xbf5a4e7e	-0.8527602
6	0x3fa75ede	1.3075826
7	0x40139509	2.3059714

l3.weight f4 [110, 8]
0	0xbdfb617d	-0.12274454
1	0xc1a70fab	-20.88265
2	0xc0ff07b4	-7.9696903
3	0xc1f788e2	-30.941837
4	0x408be615	4.371836
5	0xc18936b5	-17.151712
6	0x3f64e1ab	0.8940684
7	0x3fdb6e27	1.7142991
8	0xbe7de7a7	-0.247954
9	0xbf5b0f6f	-0.85570425
10	0x3ed90d23	0.42392835
11	0xbf7e9732	-0.99449456
12	0x3e5177f4	0.20455915
13	0xbea8ac29	-0.32943848
14	0x3e1a1027	0.15045224
15	0xbe2b235c	-0.16712707
16	0xc0601747	-3.5014207
17	0xc123398a	-10.201548
18	0xc1a6ddec	-20.85836
19	0xbf0d0134	-0.5507996
20	0xc1c90333	-25.126562
21	0xc175d854	-15.3653145
22	0x40b63321	5.6937413
23	0xbf6fc8e3	-0.93665904
24	0x3e2641f8	0.16236103
25	0xbf122272	-0.5708381
26	0x3ec871d8	0.39149356
27	0x3ecebf77	0.4038045
28	0xbd4a60a7	-0.04940858
29	0xc10acfb0	-8.675705
30	0xc167e79f	-14.494048
31	0xc152b85b	-13.170009
32	0xbf8f7856	-1.1208599
33	0xbf9ddffb	-1.2333978
34	0xbf37a020	-0.71728706
35	0x3ebcbeac	0.3686422
36	0x3f46f710	0.7772074
37	0x3ebb18fd	0.36542502
38	0xbe96a018	-0.29419017
39	0xbf9f8c2a	-1.246465
40	0xbe384159	-0.17993678
41	0xbe9979f6	-0.2997586
42	0xbf4eb62b	-0.80746716
43	0x3de42dba	0.11141534
44	0xbd1f1b12	-0.038844176
45	0x3f0e045b	0.55475396
46	0xbe1758f3	-0.14780025
47	0xbc1360da	-0.008995259
48	0xc00ba7e9	-2.1821234
49	0x3fce0197	1.6094235
50	0xc072551d	-3.786445
51	0xc1f7409f	-30.906553
52	0x3f562235	0.83645946
53	0xbfa14412	-1.2598898
54	0xc09e08d1	-4.938576
55	0x3fb734c7	1.4312981
56	0x3baff309	0.005369548
57	0xbe8489b6	-0.25886315
58	0x3e15a1ae	0.14612457
59	0xbf8dd053	-1.10792
60	0x3ef3d074	0.47619975
61	0x3edc6af3	0.43050346
62	0xbf31619c	-0.69289565
63	0xbf88c090	-1.0683765
64	0x3e3775ab	0.1791598
65	0xbf1a2309	-0.6020971
66	0xc1979ef6	-18.952618
67	0xbe70fef0	-0.23534751
68	0xbc8528b8	-0.016254768
69	0x3ee3bece	0.4448151
70	0xc1ca9482	-25.322514
71	0xbd312483	-0.04324771
72	0x3f1e6b35	0.61882335
73	0xc0c21b2b	-6.0658164
74	0xc1cec77d	-25.847406
75	0xbfc5268f	-1.5402392
76	0xbfa94be0	-1.322628
77	0xbfb88dbf	-1.4418257
78	0x400a7cb2	2.1638608
79	0x3e03b503	0.12862019
80	0x3f168522	0.58796895
81	0xbf87c014	-1.0605493
82	0x3f0cb0e6	0.54957426
83	0xbf8ba7c8	-1.0910578
84	0x3cb0f4fb	0.02160119
85	0x3e6f9216	0.23395571
86	0xbfe34d27	-1.775792
87	0xbfe456b3	-1.7838959
88	0x3eaeb489	0.34122112
89	0xc1a1b2cf	-20.212309
90	0xbf6c1b06	-0.92228734
91	0xbf3c8f48	-0.7365613
92	0xbf445f03	-0.76707476
93	0x3ea645c5	0.32475105
94	0xbd33853a	-0.043828227
95	0x3ed9ed60	0.42563915
96	0x3f449fa9	0.7680612
97	0xc1f99e7e	-31.202389
98	0xc10e98e4	-8.912327
99	0xc10fa786	-8.978399
100	0xc1ab0f71	-21.38254
101	0xc19195fa	-18.19823
102	0x4090dae8	4.526722
103	0x3eb8a30a	0.3606189
104	0x3ef61a02	0.48066717
105	0x3fb7ecff	1.43692
106	0xc0bfe767	-5.9969974
107	0xbfd29aaa	-1.645345
108	0xbf8fe36f	-1.1241282
109	0xc16fb4dd	-14.981656
110	0xc0bddcfa	-5.9332247
111	0x3f2a9c38	0.6664462
112	0xc12e027f	-10.875609
113	0xc1546d59	-13.276696
114	0xc146c0b6	-12.422049
115	0xc00d3bbb	-2.2067707
116	0xbf8da11d	-1.1064793
117	0xbf683a6b	-0.9071414
118	0x4027fc43	2.6247718
119	0x400963b8	2.1467113
120	0xc061d983	-3.5289009
121	0x4043ec55	3.0612996
122	0xc078f3e4	-3.889886
123	0xc04d1042	-3.2041173
124	0xc09ee5b7	-4.9655414
125	0xbfdf4107	-1.744172
126	0x3f0f76c3	0.5604059
127	0x3f73af9d	0.9518984
128	0xbe665b59	-0.22495784
129	0x3e316b9c	0.17326206
130	0xbe28b8ff	-0.1647682
131	0x3e9a688f	0.30157897
132	0xbe09a0a8	-0.13440192
133	0xbdfd4513	-0.123666905
134	0xbe3ed110	-0.18634439
135	0xbeb4e331	-0.35329583
136	0xbd9f4097	-0.077759914
137	0xbf55d775	-0.83531886
138	0xbf8e8591	-1.1134511
139	0x3e9dfdbb	0.30857643
140	0xc151e675	-13.118764
141	0x3de7412c	0.112917274
142	0x3e57a857	0.2106031
143	0x3e0ba2fd	0.13636394
144	0x3e83c5bf	0.25736806
145	0xc17b41dc	-15.703579
146	0xbd358c66	-0.044323348
147	0x3ece72d9	0.40321997
148	0x3e8be615	0.27323976
149	0x3e20dcf2	0.15709284
150	0xbf198590	-0.59969425
151	0xc029aca3	-2.651162
152	0xbfc21a87	-1.5164346
153	0x3ff78376	1.9336994
154	0xc0e663ef	-7.199699
155	0xc0070227	-2.1095064
156	0xc16e23f4	-14.883778
157	0xc044850f	-3.0706213
158	0x4092c23f	4.5862117
159	0xc004a217	-2.0723932
160	0xbe68197a	-0.22665969
161	0xbc1ac533	-0.00944643
162	0x3eff9ebe	0.49925798
163	0xc18e5b57	-17.7946
164	0xbeaee2d8	-0.34157443
165	0xbe7f3460	-0.24922323
166	0x3c925d49	0.017866747
167	0xbe550e44	-0.20806223
168	0x3df662a5	0.12030534
169	0x4005da88	2.091463
170	0xc1e283a6	-28.314281
171	0xbe940249	-0.28907993
172	0xc1cee3ca	-25.861225
173	0xc1a9301b	-21.148489
174	0x3f257af0	0.6464071
175	0x3fdd180f	1.7272967
176	0xc1b9be24	-23.217842
177	0xbf838ef6	-1.0278003
178	0x3dda4da6	0.106593415
179	0xc06ca672	-3.697659
180	0xc072bd15	-3.7927907
181	0xc1b73fd5	-22.906168
182	0x3ff73fc6	1.9316337
183	0x40102860	2.2524643
184	0xc1865abc	-16.794304
185	0xc19df0fe	-19.742672
186	0x3f4b0bfd	0.7931517
187	0xc1a15b29	-20.169512
188	0xc0a7a8e6	-5.2393675
189	0xc15a844f	-13.657302
190	0x3f3f5143	0.7473337
191	0x4076b19f	3.8545911
192	0x3fd2901c	1.6450229
193	0x3fb80f1e	1.4379613
194	0xc1451f9a	-12.320215
195	0xc0c44606	-6.133548
196	0xc01aee78	-2.420805
197	0xc1d98dab	-27.194174
198	0x3e1ebe5b	0.15502302
199	0x3f775f17	0.9662947
200	0xc12bb2ef	-10.731185
201	0xbfb8948a	-1.442033
202	0xbf10cf0b	-0.5656592
203	0xc1711ded	-15.069806
204	0xc14d1865	-12.818456
205	0x3fc57793	1.5427116
206	0xc092be69	-4.5857434
207	0x3f9e2bad	1.2357079
208	0x3e69bf81	0.22826959
209	0x401b01bc	2.4219809
210	0x3fb64f42	1.4242938
211	0xc168d0d5	-14.550984
212	0xc180f8b8	-16.121445
213	0xc0054527	-2.0823457
214	0xc01cf057	-2.4521692
215	0xbfecc4d0	-1.8497562
216	0xc19698ca	-18.824604
217	0x3e55de8d	0.20885678
218	0xc05a54c5	-3.411424
219	0xc07c36b7	-3.9408395
220	0x3fc9a31e	1.5752904
221	0xc162558d	-14.145886
222	0xc18f1db0	-17.889496
223	0x405ff1e8	3.4991398
224	0xc1aa4817	-21.2852
225	0xc1889422	-17.07233
226	0xc0c1dd1c	-6.058241
227	0x3f75a3b6	0.9595293
228	0x405d7423	3.4602134
229	0xc18714ca	-16.88515
230	0x3ebe78e5	0.3720161
231	0x3f1f77da	0.62292254
232	0x403af657	2.9212854
233	0xc14eaf7e	-12.917845
234	0xbed41d59	-0.4142864
235	0xc192ece3	-18.365667
236	0xc0e79ec3	-7.23813
237	0x3f0cfe36	0.55075395
238	0x404a409e	3.160194
239	0xc0430b03	-3.047547
240	0xc1aa1998	-21.262497
241	0x4048374b	3.1283748
242	0xc0a65b14	-5.198618
243	0xc00b1b00	-2.173523
244	0xc10cd492	-8.801897
245	0xc16c7180	-14.77771
246	0xc193bc9b	-18.467093
247	0x4081a12e	4.0509253
248	0xc1a494d9	-20.57268
249	0x401316fd	2.298278
250	0xc04bacae	-3.1824145
251	0xc04100c9	-3.015673
252	0xbf6911e6	-0.91042936
253	0xc0058cba	-2.0867143
254	0xc18726cb	-16.893942
255	0x3f398ef1	0.72483736

l3.bias f4 [110]
0	0x3ede867b	0.43461975
1	0xbfdc0264	-1.718823
2	0x4049a5e5	3.1507504
3	0xbeae6d4d	-0.34067765
4	0x3fbd8729	1.4806873
5	0xbf41fcba	-0.75776255
6	0x400ac4f6	2.1682715
7	0xbf2b0286	-0.66800725
8	0xba3be5dd	-0.0007167736
9	0x3fa7eb5e	1.3118703
10	0xbeda7dce	-0.42674106
11	0x3f217904	0.6307528
12	0x3f0de5ef	0.55428976
13	0x40b3df1a	5.620984
14	0x40a8c8e3	5.2745223
15	0x3f8a2053	1.0791115
16	0xbf996f7d	-1.1987149
17	0x3e9bd611	0.30436757
18	0x3f3fa683	0.7486345
19	0x4088d476	4.275935
20	0xbf78ed75	-0.9723733
21	0x3fc8bc6f	1.5682505
22	0x3f0eae15	0.5573438
23	0x408dc169	4.4298596
24	0xbf6db29b	-0.92850655
25	0xbe9a82c5	-0.30177894
26	0x3d3cd7b6	0.046104155
27	0x3fd61ad4	1.6726937
28	0x40413543	3.0188758
29	0xbfb86a3e	-1.4407423
30	0x40664f03	3.5985725
31	0x400ffb73	2.2497222
32	0x402898cc	2.634326
33	0x3ffa806b	1.957044
34	0xbefc34f9	-0.49259165
35	0x401f9ca1	2.4939349
36	0x40885ee6	4.2615843
37	0x4002fb5a	2.0465913
38	0x404a35fd	3.1595452
39	0x3f867291	1.0503713
40	0xc0427079	-3.0381148
41	0x405fc83e	3.4965968
42	0x40866237	4.199489
43	0x3f1ca89e	0.6119479
44	0x3e820795	0.2539641
45	0x401abd9a	2.4178224
46	0x40284d4f	2.6297185
47	0x3f5dcd88	0.8664174
48	0x3fd22a9a	1.6419251
49	0x3ffdb5c9	1.9821101
50	0x3fbc113d	1.4692761
51	0x3f64da11	0.8939524
52	0x3ec37f15	0.38182893
53	0xbd460ad8	-0.048350185
54	0x3f8e8189	1.1133281
55	0xbfcb0e51	-1.5863744
56	0x404b9e05	3.1815197
57	0xc0022f5e	-2.034141
58	0xc00fdf2e	-2.2479968
59	0x400dfd29	2.2185767
60	0xbe9636a7	-0.2933857
61	0x4022b98d	2.5425751
62	0x3e184961	0.14871742
63	0xbf64c8b1	-0.8936873
64	0x4049089f	3.1411512
65	0x4085a068	4.175831
66	0x401366e0	2.303154
67	0x402904cc	2.6409178
68	0x3e6e21ac	0.23255032
69	0xbd70d016	-0.058792196
70	0x402dbfbf	2.7148283
71	0xbf53b63b	-0.82699937
72	0x3fe13591	1.7594472
73	0x40959053	4.6738677
74	0x3df4b347	0.11948257
75	0x3fb50cdc	1.4144549
76	0x3f3c886a	0.7364565
77	0x40b28a3c	5.5793743
78	0x3fbfea15	1.4993311
79	0x3f618643	0.8809549
80	0x4017f77c	2.3744802
81	0x40197b6a	2.3981576
82	0xbeada7f0	-0.3391719
83	0x3fa51c57	1.2899274
84	0xbf9273e4	-1.1441617
85	0xc014c362	-2.3244252
86	0xbf775cab	-0.96625775
87	0xbfcb6664	-1.5890622
88	0xbf816545	-1.010903
89	0x3f09d5aa	0.5384165
90	0xbe982818	-0.2971809
91	0x40219ae9	2.52508
92	0x3f29133f	0.6604499
93	0xbf6dce06	-0.9289249
94	0x4033e151	2.8106272
95	0x4037ebc5	2.8737652
96	0x3ee911cd	0.45521393
97	0x400106a2	2.0160298
98	0x3fe3ce36	1.7797306
99	0xbf3a6cb4	-0.7282212
100	0xc033668e	-2.8031344
101	0x40707f86	3.7577834
102	0xbf0abfea	-0.5419909
103	0x3fcb561e	1.5885656
104	0x40046f71	2.0693018
105	0xc09bd231	-4.869408
106	0x3f7a462e	0.97763336
107	0xc00727ec	-2.1118116
108	0x4094c86e	4.6494665
109	0x3ec7ebf6	0.3904721
