backend/app/ml/cached_model_states/data3.pth (torch, 130431 bytes, 6 tensors)

0.weight f4 [8, 2572]
00000000: cf6c 863e 055d ed3e ddc3 adbe ec7c d43e
00000010: 3e55 b53e d31d c53d 8e39 0c3e bda5 2c3d
00000020: 6662 6fbe 9412 c1be 32fa cdbe 0d3b af3e
00000030: 8b59 acbe cb2a b33f e27c 1540 19d3 703f
00000040: a366 6c3f 6022 923f d548 be3f 41c9 513f
00000050: 1d87 99bd aca8 b03d cf89 81be 9692 7cbd
00000060: f700 84bf 8608 b7bf e794 b7bd 160f 693e
00000070: 2c58 bd3e 98cc c6be c794 2640 b3df 393b
00000080: ae11 133f a873 0840 9c33 d8bd 6c29 f63e
00000090: a05c dabe f851 093f 7cfb 443f 8bdc cf3e
000000a0: 1948 cdbe f7ac be3f c20e e23e 15ea dfbe
000000b0: 9438 7b3e f5a0 c23f faa7 423e dfaa 8ebe
000000c0: a19f 213f 6c49 56be 9518 c33f e9c6 c43f
000000d0: 0686 cdbe 1707 b53e 1925 1bbf a19e a83e
000000e0: 42b0 22bf 974e e5be 7618 413d d36f 7140
000000f0: bd93 0340 6e7c d13e 3241 10c0 e6b6 3fbf
00000100: 5f20 6dbe 4911 2f3e 8d35 a7be fd06 0b3f
00000110: 0492 dd3f b505 053e d8c7 7d3e 648d 5abe
00000120: 25bc 0c3f 1b51 89be ee62 c93e b1ab dd3e
00000130: 927d ee3c 4128 6f3e 3150 c440 8150 873f
00000140: 6fd4 6abe c407 2cbf b0d6 fa3e 657e 003f
00000150: fb15 6b3e 57bd d83e cd42 6ac0 4b48 5f3e
00000160: ca06 b23d f78b 4c3d 4bcc a73d b876 2a3e
00000170: bbae 63bf 31fd 01bf 37d9 f0bd 3c83 863e
00000180: b014 92be 78ce 92bf 1eb0 0b3d 5070 923d
00000190: e70c 863f 6944 323f 4ccb 043d 3d2a 2941
000001a0: 9605 f1bd 3cd2 1540 75b3 cd3e 05d5 95bd
000001b0: e839 333d d726 88bc 5fb4 8d3e 4ea3 e93c
000001c0: 92aa 403f fd9d 1b3f 3ad9 01be c13f 0840
000001d0: dd42 0540 4d4e d8bc 4620 993f da6f eb3e
000001e0: 580c a03e da93 f6be 0494 66be f6ef d1ba
000001f0: e95f d1be e22f 453e fdcd c5bd 6818 4d3e
00000200: ad77 b33e 71a3 bc3e 1113 34be a5ee b5bf
00000210: 0e23 b93e 7f86 673f 8a6f f63e cb41 e33e
00000220: d90e b43e faaa d13d 049c 9d3f 827d e1bf
00000230: a3c1 06be 9ab4 d63e 5b0e 123f fff8 103f
00000240: 9ebd f23e 3f58 223e a6a0 923d 4c03 4f3e
00000250: 8e7e 8b3c ae1a 5b3e 543a 893f 95a6 563f
00000260: 349b ea3d 86bf 033e 1599 89be a5fa 7abe
00000270: c1af 1e40 b33f d0bf 2ff1 6741 067f 29be
00000280: c0a1 40be efc1 8a3e 90d4 99be 254c 1dbf
00000290: 292f 293f 1e68 a33f 88f6 8c40 d7b0 e7be
000002a0: fd8e 783f e71e bbbe a18c 233e 2225 4d3f
000002b0: d1c4 0fbe a53f 0f40 884e 3ebe 7581 d5bf
000002c0: a309 1fbe 30d8 703e 62fa a7bb 0878 c33f
000002d0: 4035 0240 d138 463e d279 693e 1281 b93d
000002e0: 6a44 bc3e 6980 803f 82fe 8c3e aeed 11bd
000002f0: 738e 4ebe 5f84 90be 1824 09bd a80e 083f
00000300: 5a7b 143f 1fef b53d 5ecf f5be e5ee abbf
00000310: 2a0c 2dbe d97e fabc a43e 8dbd d4ee 9b3e
00000320: cdce e6bd 7951 02be 6d75 aabe b22c 6f40
00000330: fe97 bfbf 3aec 133f a81c 1d3f b3d1 6cbf
00000340: a6e1 123d 2321 8340 a4e3 29be f631 dc40
00000350: 6c9e 803e e795 ab3e 9893 92be 21e0 89bf
00000360: 40a0 843f 1180 9540 7245 22bd 9f7b 843e
00000370: dbf8 d3bd 0ae9 0c3f a38c f3be 3f4d 0441
00000380: 203d 6fbf 5131 e5be d9c1 0cbd 1f55 303f
00000390: 439a 633f b761 543e 9df7 96bf 0bd2 b1be
000003a0: c6fd 2c3f 3b84 90be 0ddc b43e 4e7f 9cbe
000003b0: c242 1dbf f4af a0be efd9 6ebd f6bf 95bf
000003c0: c67b debe 8610 89be aea6 d33e bc43 b3be
000003d0: c3b4 003e 728c ddbd 0615 983f add6 8d3d
000003e0: cf9c 56bd e341 a13f 7b65 4c3f 0f48 8abf
000003f0: db30 b8bc ae64 9d3f 1679 993f 14a1 593e
0.2625489 0.4636003 -0.33938494 0.41501558 0.35416597 0.09624829 0.1369383 0.042150248
-0.2337738 -0.37709486 -0.40229946 0.3422474 -0.33662066 1.3997434 2.3357472 0.9407211
0.9234411 1.141674 1.4865977 0.81947714 -0.07496474 0.086259216 -0.25300452 -0.061663233
-1.0312794 -1.4299476 -0.08963948 0.22759661 0.36981332 -0.38827968 2.6028306 0.0028362095
0.5744885 2.132059 -0.10556719 0.48078477 -0.42648792 0.536407 0.76946235 0.40597948
-0.4009407 1.4896535 0.44151884 -0.43733278 0.24533302 1.520537 0.1900939 -0.2786474
0.631342 -0.20926446 1.5241877 1.5373203 -0.40141314 0.35356972 -0.6060348 0.32933524
-0.635502 -0.44786522 0.04714247 3.7724502 2.0558922 0.40915245 -2.2539792 -0.74888456
-0.2315688 0.17096438 -0.32658044 0.5430754 1.7310185 0.12990458 0.24783266 -0.21342999
0.54974586 -0.2681969 0.3933329 0.43295053 0.029112611 0.233552 6.134789 1.0571443
-0.229326 -0.6719935 0.4899192 0.5019286 0.22957604 0.42331955 -3.6603272 0.21804921
0.08692701 0.04993817 0.08193263 0.1664685 -0.8893849 -0.50776964 -0.117601804 0.26272
-0.28531408 -1.1469259 0.034103505 0.07150328 1.0472687 0.69635636 0.03242044 10.572812
-0.117686436 2.3409567 0.40175977 -0.07316021 0.043756396 -0.016620083 0.27676675 0.028520253
0.7526027 0.60787946 -0.12680522 2.1288912 2.082206 -0.026404524 1.1962974 0.45983773
0.31259418 -0.48159677 -0.22517401 -0.0016016949 -0.40893486 0.19256547 -0.0965843 0.20028841
0.35052243 0.36843446 -0.17585398 -1.4213454 0.36159557 0.904396 0.48131973 0.44386134
0.35167578 0.10237689 1.2313237 -1.7616427 -0.13159804 0.41934663 0.57053155 0.5662994
0.4741029 0.15853976 0.071595475 0.20216101 0.01702812 0.21396896 1.0720925 0.83847934
0.11455384 0.12866029 -0.26874605 -0.24509676 2.4794772 -1.626944 14.496383 -0.16552362
-0.18811703 0.27101085 -0.30044985 -0.6144431 0.66087586 1.2766149 4.405094 -0.45252106
0.9709318 -0.36547014 0.15971614 0.80134785 -0.14039923 2.2382596 -0.18584645 -1.6680132
-0.1553102 0.23519969 -0.0051262835 1.5271006 2.0345001 0.19357611 0.22800377 0.09057821
0.36770946 1.0039188 0.27537924 -0.03562706 -0.20171528 -0.2822599 -0.033481687 0.53147364
0.5800072 0.08883499 -0.4800977 -1.343228 -0.16899171 -0.030578064 -0.068967134 0.3045565
-0.11269913 -0.12726392 -0.33292714 3.737103 -1.4968259 0.5778233 0.6137185 -0.92507476
0.035859726 4.097795 -0.16590744 6.8810987 0.25120866 0.33512804 -0.2862823 -1.0771524
1.0361404 4.671883 -0.03961701 0.25875565 -0.103502 0.5504309 -0.47568235 8.268859
-0.93452644 -0.44764188 -0.034364555 0.68879884 0.8890726 0.207404 -1.1794316 -0.34730563
0.6757473 -0.28225884 0.35324135 -0.30565876 -0.6142999 -0.31384242 -0.058313306 -1.1699207
-0.43453807 -0.2677042 0.41338104 -0.35012615 0.12568955 -0.108178034 1.1881416 0.06925712
-0.052395638 1.2598232 0.79842347 -1.080324 -0.022484234 1.229635 1.1990077 0.21252853

0.bias f4 [8]
00000000: 8299 8b3f 2c7f 3540 9d0e 823f b560 7e3f
00000010: bd4f 933f f008 973f 41c6 bc3f 0ad4 c23f
1.0906222 2.835887 1.016071 0.99366313 1.1508709 1.1799603 1.4748002 1.5220959

2.weight f4 [8, 8]
00000000: f0b5 dbbd e668 0bbf 65de 063f 591c ed3e
00000010: 021f c93e 036f 9abe b446 623d ed6f 593f
00000020: 76fe 493f 330f 7bbe b252 70be 87e1 813e
00000030: aeaf 273e bcc6 babd 2f8c e43e 6f8e a4be
00000040: 04ab 48be 59a7 8f3f df02 37be 27c4 93be
00000050: c998 cc3e dc29 0fbf 5784 e73e 13e4 9d3e
00000060: ce30 c6be d09d 923e 2f44 afbd dc8b 133f
00000070: ecfa 093f 36c4 933e ab8d 1bbe 087c a4be
00000080: f399 e83e 97b5 363f c04b 693e c80a d53e
00000090: f83b acbe 8968 ab3e 35b7 02bf ee5a aa3e
000000a0: a114 ae3d 869b 7dbe 2b5e 3fbe c1ed d3bd
000000b0: 703c 333e 243a 653f cced b73e 6175 793e
000000c0: a4aa 803e 9f66 c3bd e7e4 653f 2dd4 c8be
000000d0: 3d6d bb3e b53a 713e bf5e be3c a83a a4be
000000e0: 45ac babe 80f5 e03d 13ac ca3e 3596 e13e
000000f0: 9938 fcbe 0cbc 1e3e 5048 253f bd0b 91be
-0.10728061 -0.5445694 0.526831 0.4631069 0.3928147 -0.3016282 0.05524321 0.8493641
0.789039 -0.24517517 -0.23469046 0.25367376 0.1637561 -0.09119937 0.44638202 -0.32139918
-0.19596487 1.1222945 -0.17872189 -0.2886059 0.39960316 -0.5592325 0.45218155 0.3083807
-0.3870911 0.28636026 -0.08557927 0.57635283 0.538985 0.28860635 -0.15190761 -0.32125878
0.45429954 0.71370834 0.22782803 0.41609788 -0.33639503 0.33478191 -0.510608 0.332725
0.085000284 -0.24766359 -0.18688266 -0.10348082 0.17503524 0.8954184 0.35923612 0.24361183
0.25130188 -0.09541058 0.898024 -0.39224377 0.3660678 0.23557551 0.023238538 -0.32076
-0.36459556 0.109843254 0.39584407 0.4405991 -0.4926193 0.15501422 0.64563465 -0.28329268

2.bias f4 [8]
00000000: bf3d 16bf 6511 f03d a06c 563f 69cc 203f
00000010: 43f9 bdbf d1f7 a8bf 2701 d23e 93a9 9b3f
-0.5868797 0.11722068 0.837595 0.62811905 -1.4841694 -1.3200628 0.41016504 1.2161125

4.weight f4 [110, 8]
00000000: 8b98 d6c0 dbc6 ffc0 e99e 863f dae1 3240
00000010: 6a57 93be 7daa 8bc1 6a65 4940 770e 41c1
00000020: 331a 993e 76fd 6dbe 5ecf 59be 6114 08bf
00000030: 2734 92bf fe07 dc3e 56b1 40be be85 dc3d
00000040: ed53 a2c1 2c85 9a3e 305e fdbf 5375 3dc0
00000050: 6d0b ea3f 1f9a 8dc1 458f 5440 cbf0 8fc0
00000060: 85a6 a33e f622 633f a18a 82c1 019b 82bf
00000070: cd31 e3be aa49 9ebe 280e 51bf e658 21bf
00000080: ea8a 46be 903a 0bbf f2b3 6dbf f81b 803d
00000090: e3b1 eb3e 705a 943e bb90 513e 1c27 dcbf
000000a0: 2e8c 55be 4f64 3dbe e232 49be 0344 51bf
000000b0: 30f0 f53e 9c21 d83d 13da a6bd 3329 533e
000000c0: 6027 76bd c37c dcc0 9a50 13bf 752e 6dbf
000000d0: 34ec 683e 58fa 3ac1 fcac 3e40 836f 9fc1
000000e0: fb04 98be a5a8 8cbf 9881 96bf ee4a 7fbf
000000f0: 4af9 383f f9f7 ef3e e756 9bbe 9926 bf3e
00000100: 0f5c 72bf 1896 25be b91b 253e 50ec 2cc1
00000110: 7039 afbe bbb5 35be 0ba4 e13d 8cd2 9a3d
00000120: ab28 a7c0 4806 98c1 a8cd c83f d86b 82bf
00000130: d02f 8ebe 8489 05c2 acd7 00c0 fc4c 0740
00000140: c227 bebf 347a 833e 17a9 14c1 8e9b 5ebf
00000150: 1c97 d13e 11f5 babd 1b83 083f d40e 11bf
00000160: 1f72 883e 52e5 d6c1 f17d 333e d0ee 80bf
00000170: f9b3 0d3e 192e 85bf 1c15 20bf efe7 c3bd
00000180: 55c2 eebf c928 82c1 7884 0e3f 810d ad3f
00000190: 9852 bdc0 4eaf afbf 0514 1a40 5636 9ec1
000001a0: 4567 dac0 e8d6 473f 84da 0dbe 7fb1 a3c0
000001b0: 888c 7cc1 3226 dfc0 425f d53f 3e1d 4840
000001c0: 6756 8ac0 866d 4fc1 3b07 55be e61d 8840
000001d0: e9a6 a3c0 52b4 89c0 d24d c4bf 9a5b 8f3f
000001e0: d517 c0bf 040c 17c0 7d3c 3b3e aab1 613f
000001f0: 1769 7b3f cfdf 52c1 aa97 1bc1 3289 ed3f
00000200: 1734 e13e ddd2 2a3d d32b 1cbf e8db 4abf
00000210: fe71 933e 1a47 b2be 3150 77be 169a 8d3e
00000220: 36bd 443e 080c 97c1 4c68 823e b9bd dfc1
00000230: 4a79 293d 9afa f9c0 d650 6abd 6010 1bbe
00000240: 84df 8dbe cfab 743e fdd4 8ebf 1ad9 52be
00000250: 7ebc 323e 5ce5 283f 7a49 fdbe 903c e0be
00000260: ed9a 30c0 f7b7 1bc0 a87c 0840 cd24 24c0
00000270: 9fb6 aac0 a6df 1fc1 3fa3 da3f f84c 233e
00000280: 8fb9 88be 4958 0d3f a1cb 7c3d af59 b7bf
00000290: b9fb 29be 3edb 89be 60f4 0fc1 3026 523e
000002a0: 13af e9c1 8b87 11c1 6d19 143d 9101 a93f
000002b0: 4fc1 8c3f c7dd d9c1 6762 b23f b176 43bf
000002c0: dfb7 03bd f7e1 aec0 b087 fb3f f6f7 1c3f
000002d0: 743a bec1 7553 5a3f 923f 93bf 8848 9cc1
000002e0: a350 b33f ae17 4dc0 547c 9b3f 0c04 8540
000002f0: 6f78 57c1 4118 73c1 3479 f8c0 cb7f cfc0
00000300: e284 cbbf eb2b 883f 55cb 57bf e012 6840
00000310: b0d0 8cc1 ae77 58bf 57fe 04c0 1a8c d2c0
00000320: 0c2c 523f 4197 b43e 3a75 d23f 7c36 43c1
00000330: 3b10 9ac1 fe21 06c0 e940 01c1 ef3e 2bc1
00000340: a3ae f6bd d92a b9bf 32a9 e3bf 061b a43f
00000350: 299e b5c0 7f45 8dbf 4cb0 0a40 864c 41c1
00000360: 4280 613f db64 5fbf 37be a63e 7c2d 303f
00000370: a6a9 34c1 6643 b63f 856d 2ac0 6257 53c1
00000380: 21b5 9ac1 f7c4 2ac1 85e3 03c0 af94 4540
00000390: 7d64 13c0 332a 933f 40bc a53e af21 aabf
000003a0: 3462 43c1 e042 00be 3d18 283f c88b 39c1
000003b0: 0965 17c1 f2aa 0140 0e58 c2bf cd7a 953f
000003c0: 0d4d e83f d584 c7be fc6e 3bbe 50eb cb3e
000003d0: 34b8 82c1 ffc3 96c0 8219 1a3f dbb6 84c1
000003e0: 34d5 b13f 32c8 96bf 4742 e6bf 2c6e 1bbe
000003f0: fdda 84c1 4d3d 563f 3e56 b03e 0dcb 7dc0
-6.706121 -7.9930243 1.0517246 2.795035 -0.2877763 -17.458246 3.1468148 -12.066031
0.299028 -0.23241219 -0.2127051 -0.53156096 -1.1422166 0.42974848 -0.18817648 0.10767697
-20.29098 0.30179727 -1.9794369 -2.960286 1.8284737 -17.700254 3.3212445 -4.4981437
0.31962982 0.8872522 -16.31769 -1.0203553 -0.44373932 -0.30915576 -0.81662226 -0.63026273
-0.19388929 -0.54386234 -0.928527 0.062553346 0.46034154 0.28975248 0.20465367 -1.7199435
-0.20854256 -0.18495296 -0.19648317 -0.817444 0.4803481 0.105532855 -0.08147063 0.20621185
-0.060096145 -6.8902297 -0.57544863 -0.9264901 0.22746354 -11.686119 2.9793081 -19.92945
-0.296913 -1.0988966 -1.1758299 -0.9972371 0.72255385 0.46868876 -0.3033974 0.37334135
-0.9467172 -0.16170537 0.16123857 -10.8076935 -0.3422351 -0.17745106 0.11017617 0.0755969
-5.2237144 -19.003067 1.5687761 -1.0189161 -0.27770853 -33.384293 -2.0131636 2.1140738
-1.4855883 0.2567917 -9.291282 -0.8695611 0.409356 -0.09128774 0.5332505 -0.5666325
0.26649567 -26.861973 0.17528512 -1.007288 0.13838185 -1.0404693 -0.6253221 -0.09565722
-1.8653055 -16.269915 0.5567088 1.3519746 -5.9163322 -1.3725374 2.407472 -19.776531
-6.825106 0.78062296 -0.13852888 -5.115417 -15.784309 -6.9734125 1.6669695 3.1267848
-4.323047 -12.964239 -0.2080354 4.2536497 -5.114125 -4.3032618 -1.5336249 1.119983
-1.5007273 -2.3601084 0.18284793 0.8816172 0.9820723 -13.179641 -9.724527 1.8557494
0.43985054 0.041705 -0.6100437 -0.792418 0.28797907 -0.3481987 -0.24151684 0.2765662
0.19212803 -18.880875 0.25470197 -27.967638 0.041375436 -7.811841 -0.057205997 -0.15142965
-0.2770959 0.23893665 -1.1158749 -0.2059063 0.17454717 0.65974975 -0.4947012 -0.43796206
-2.759456 -2.4331033 2.1326084 -2.5647461 -5.3347926 -9.992102 1.7081069 0.1594733
-0.2670407 0.5521284 0.061717633 -1.4324244 -0.16599931 -0.2692508 -8.997162 0.2052238
-29.210485 -9.095592 0.03615706 1.3203603 1.0996493 -27.23329 1.393628 -0.76352984
-0.032157775 -5.4650836 1.9650784 0.6131586 -23.778542 0.85283595 -1.1503775 -19.535416
1.4008983 -3.2045703 1.2147317 4.156744 -13.466903 -15.193421 -7.7647953 -6.4843497
-1.5899928 1.0638403 -0.84294635 3.626152 -17.601898 -0.84557617 -2.0780237 -6.5796022
0.8209846 0.35271648 1.6442025 -12.200802 -19.257925 -2.0958247 -8.078347 -10.702865
-0.12045028 -1.4466201 -1.7786009 1.2820747 -5.6755567 -1.1036834 2.1670103 -12.0811825
0.8808633 -0.8726327 0.32566997 0.68819404 -11.291418 1.4239318 -2.6629345 -13.208834
-19.338442 -10.673087 -2.0607617 3.0872 -2.3030083 1.1497253 0.32370186 -1.329153
-12.211475 -0.12525511 0.65661985 -11.596626 -9.462167 2.0260587 -1.5183122 1.1678101
1.8148514 -0.3896853 -0.18304056 0.39827967 -16.339943 -4.7114253 0.6019517 -16.589285
1.389319 -1.1779845 -1.7988976 -0.15178746 -16.606928 0.8368729 0.34440798 -3.9655182

4.bias f4 [110]
00000000: 6149 9ebf 4745 2dbf a722 4c40 d480 123f
00000010: 4287 853f 7f24 c9bf 7be2 11bf 1f70 523f
00000020: becc 113f c7f5 fc3f 0e96 4abe ba4f 453f
00000030: 7d53 9740 6af3 f640 5dca d040 23ea 8a3f
00000040: 293b 8dbf e87d 8abf 8100 14bf 7daa a83f
00000050: a928 7dbd 2a5a 3440 d4c7 7b3f 95b0 a340
00000060: 8d36 d13f b9a6 5f40 62e6 0e40 9156 2d3f
00000070: af39 3640 490e 8f40 09f5 5940 3b09 e63f
00000080: 62d9 8340 4d88 683e 8ae5 c63e 0a87 d43e
00000090: 3757 51bf 272f 5540 c708 7a40 ad8f d1bf
000000a0: b22b 83c0 182a 823e a3f4 613f 54e1 f23f
000000b0: 7453 6a40 3755 e3be dd2b 7340 1357 bd40
000000c0: f8ff 1540 98f9 a640 f116 7abe de51 1540
000000d0: 2536 4540 52e3 b53f ee73 87be bb63 50bf
000000e0: 8a9c 6240 7066 b2bf 3f60 65c0 2baa 1940
000000f0: bc14 9d3f 010f d83f 3a35 243f b88a e4be
00000100: 15d8 aabe 245e 4540 ab69 c23f 61d6 9bc0
00000110: 9547 103c c8b2 4a3f 5e18 6340 0826 b33e
00000120: 30bb 4e40 e93b 8240 fcf8 0fbf 5b69 b33f
00000130: 0243 4340 99cd 7740 5349 3740 f580 be3f
00000140: 7beb 1640 c26a 1240 5425 04bf 274d 2741
00000150: f786 b5be 6197 b7bf a64b 87bf 9284 1540
00000160: f699 b33f 3524 05c0 e890 96be 5bd6 a33f
00000170: 3614 4c3f a8fc cbbf fe6c 37bf bda3 843f
00000180: 40c2 803f 9921 1a3f 70f8 8740 f09f e7bf
00000190: 94c4 e8bf 976e 1440 286d e5bf 9f5a 60bd
000001a0: 9671 1440 e18b dbc0 d7ba 6dbf cb63 23c0
000001b0: 5f02 da3f bc28 97bf
-1.2366143 -0.67683834 3.189615 0.57227826 1.0431902 -1.5714263 -0.56986207 0.82202333
0.56953037 1.9762505 -0.19783804 0.7707478 4.7289414 7.7172136 6.5247025 1.0852703
-1.1033679 -1.0819674 -0.5781327 1.3177029 -0.061806355 2.8180032 0.9835179 5.1153054
1.6344773 3.494551 2.2328115 0.67710215 2.8472707 4.470494 3.4055808 1.7971567
4.120286 0.22708245 0.38847 0.41509277 -0.81773704 3.331003 3.9067857 -1.6371971
-4.099084 0.2542274 0.8826391 1.8975015 3.6613436 -0.4440095 3.7995522 5.916879
2.343748 5.217968 -0.24422814 2.3331218 3.0814297 1.4209998 -0.26455635 -0.81402177
3.5408044 -1.3937511 -3.5839994 2.4010112 1.2271953 1.6879579 0.6414372 -0.44637084
-0.33367983 3.083871 1.5188497 -4.8699193 0.008806129 0.7917905 3.5483623 0.34989953
3.230175 4.0698133 -0.56239295 1.4016527 3.0509648 3.8719237 2.8638504 1.4883105
2.3581226 2.287766 -0.5161946 10.456336 -0.35454533 -1.4343072 -1.0569961 2.3362164
1.403136 -2.080335 -0.2940743 1.2799791 0.7971834 -1.593648 -0.71650684 1.0362469
1.005928 0.60207516 4.249077 -1.8095684 -1.8184991 2.3192499 -1.7923937 -0.054773923
2.3194327 -6.860825 -0.9286322 -2.5529659 1.7031974 -1.1809306
