backend/app/ml/cached_model_states/data.pth (torch, 130431 bytes, 6 tensors)

l1.weight f4 [8, 2572]
0	0xbdc04252	-0.093876496
1	0x3dd4cfd9	0.10391206
2	0xbea427b1	-0.32061532
3	0xbe58cd46	-0.21172056
4	0xbd2275df	-0.039663192
5	0xbecc12a3	-0.3985797
6	0x3ef1420d	0.47120705
7	0xbe89032a	-0.26760226
8	0xbf1c37f4	-0.6102288
9	0xbe662ba0	-0.22477579
10	0xbe83f1ed	-0.25770512
11	0x3f312874	0.6920235
12	0x3da50901	0.08058358
13	0x3ff97cfd	1.9491268
14	0xbe1fea88	-0.1561681
15	0xbfdcd326	-1.7251937
16	0xbfdd66ec	-1.7297034
17	0xbd9fe713	-0.07807746
18	0x3eb6954e	0.35660785
19	0x3f0a3715	0.539903
20	0xbe44425c	-0.19165939
21	0x3edeb529	0.4349759
22	0xbe8f463f	-0.2798328
23	0x3e1c0cd7	0.15239273
24	0xbf5606d7	-0.83604187
25	0xbeebf930	-0.46088552
26	0x3d8a5cae	0.067559585
27	0x3e2d9312	0.16950634
28	0x3da39114	0.07986656
29	0xbf664159	-0.8994346
30	0xbf34918d	-0.7053459
31	0x3e6e92be	0.23298165
32	0x3fbc352f	1.470373
33	0x3f005466	0.5012878
34	0x3e5f9787	0.21835147
35	0xbddf4e6b	-0.10903629
36	0xbfee9499	-1.8639098
37	0xbdeeb6d7	-0.11655968
38	0x401e795c	2.4761572
39	0x3f1b400b	0.60644597
40	0xbe9ba223	-0.30397138
41	0xbf7f9dd4	-0.998502
42	0xbed80128	-0.42188382
43	0xbd929073	-0.07156458
44	0xbdebf7b9	-0.11521859
45	0x402d46c6	2.7074447
46	0x3f251a5b	0.6449334
47	0xbe0c2e33	-0.13689499
48	0x3f110eb8	0.56663084
49	0xbf0e9fb7	-0.55712456
50	0x402d4605	2.7073987
51	0x402ed6f1	2.731869
52	0xbe88d6c5	-0.26726356
53	0x3e10df73	0.14147739
54	0xbf70d1ed	-0.9407032
55	0x3eaee2d1	0.34157422
56	0xbf6dd5ec	-0.92904544
57	0xbfc86a68	-1.5657473
58	0x3e831692	0.25603157
59	0x40171246	2.3604903
60	0x3fc1ec8c	1.5150313
61	0x3e610f41	0.21978475
62	0x3f81845a	1.0118515
63	0xbe07f9ec	-0.13278931
64	0x3e0886be	0.1333265
65	0xbd6fd653	-0.058554005
66	0xbea20bc1	-0.31649593
67	0x3e3a715a	0.18207303
68	0x3e7199e6	0.23593864
69	0x3eeea896	0.46612996
70	0x3c924ff8	0.017860398
71	0xbf2899e7	-0.65859836
72	0x3f295c31	0.661563
73	0x3f26737b	0.6501996
74	0x3d7586f1	0.059943143
75	0x3ee2b70e	0.44280285
76	0xbe2ad253	-0.16681795
77	0x3faa433c	1.3301768
78	0xbf186ab0	-0.5953779
79	0x3ea2b165	0.31775966
80	0x3d4cf9c9	0.0500429
81	0xbe999382	-0.29995352
82	0xbd7154af	-0.05891865
83	0xbf6ce0a0	-0.9253025
84	0x3dc25689	0.094891615
85	0x3f26d840	0.6517372
86	0xbfdcafee	-1.724119
87	0x3e6ba212	0.23011044
88	0x3d845093	0.06460681
89	0xbe35ccb1	-0.17753865
90	0xbd5c2bcc	-0.053752705
91	0x3f00bf50	0.5029192
92	0xbf34f96c	-0.7069309
93	0xbe9cf1fd	-0.30653372
94	0x3f5a262d	0.852145
95	0xbe53ff3d	-0.20702834
96	0xbf7138b3	-0.9422714
97	0xbded4b5e	-0.11586641
98	0x3de96e62	0.11398007
99	0xb9b854a8	-0.0003515829
100	0x3ebf3cfd	0.37351218
101	0x3e0a7f80	0.135252
102	0xbed5ddd5	-0.41770807
103	0x410ea74a	8.915842
104	0x3f00417f	0.5009994
105	0x4096bcfc	4.7105694
106	0x3d7fdb61	0.062465075
107	0x3fc0c9ad	1.5061547
108	0xbe68c8a4	-0.22732788
109	0xbf2af954	-0.66786695
110	0x3f04e460	0.5191097
111	0x3dad37ab	0.084578834
112	0x3f2f4bbb	0.6847493
113	0x3e9352b7	0.28774044
114	0x3f6ebb4f	0.9325456
115	0x3fac5db5	1.3466097
116	0x3de45674	0.11149302
117	0xbe025a95	-0.12729867
118	0x3f74e35c	0.9565942
119	0x3eaf764f	0.3426995
120	0x3cb8e820	0.022571623
121	0xbe34c151	-0.1765187
122	0xc001057d	-2.01596
123	0xbda98694	-0.08277622
124	0xbbff148e	-0.0077844327
125	0xbeb43e0a	-0.35203582
126	0xbf73cbb0	-0.9523268
127	0x3f29aade	0.6627635
128	0x3d3f28e8	0.04666987
129	0x3eba3603	0.36369333
130	0x3f0be6a7	0.5464882
131	0xc01f6e50	-2.491108
132	0xbcc2934b	-0.023751875
133	0x3f529976	0.8226541
134	0xbdfd0f9c	-0.12356493
135	0xbf3b113c	-0.7307317
136	0x3e5e910b	0.21735017
137	0xbc94e1f6	-0.018174153
138	0xbeae444f	-0.3403649
139	0xbee3804e	-0.44433826
140	0xbe10b9bf	-0.14133357
141	0x3f456e35	0.7712129
142	0x3f00a315	0.50248843
143	0x3e66bfd2	0.22534111
144	0x3eb7272f	0.35772082
145	0xbe48be61	-0.19603874
146	0xbe9b6ead	-0.30357876
147	0xbec1628f	-0.37770507
148	0xbe02410e	-0.12720129
149	0x3ebb44e1	0.36575988
150	0x3ef36c61	0.47543624
151	0x3f4aed1e	0.7926806
152	0xbcada080	-0.021194696
153	0x3ecb267e	0.39677805
154	0xbe59a19c	-0.21253055
155	0xbe8cf5ee	-0.2753138
156	0xbfc9f643	-1.5778278
157	0x40a421c8	5.1291237
158	0x41270f60	10.441254
159	0xbed089ba	-0.40730077
160	0x3f0da7c6	0.55334127
161	0x3eb98c2c	0.36239755
162	0xbf05c542	-0.52254117
163	0xbf72977f	-0.94762415
164	0xbeb1cbec	-0.34725893
165	0xbfc072d3	-1.5035042
166	0x3f4fc8c1	0.811657
167	0xbf037259	-0.51346356
168	0xbe2f4533	-0.17116241
169	0xbf83b1fe	-1.0288694
170	0xbec44454	-0.3833338
171	0x3f5e389d	0.86805135
172	0x3e945fd5	0.28979364
173	0xbfb24ba3	-1.3929332
174	0xbb7c7447	-0.0038521455
175	0xbfc076df	-1.5036277
176	0x3aa5775c	0.0012624073
177	0xbe6b6126	-0.22986278
178	0x3e3e9ba8	0.18614066
179	0x3f5596b0	0.83433056
180	0x3efc5ede	0.49291128
181	0x3eeb8054	0.45996344
182	0x40b50d75	5.6578927
183	0x3e8fff42	0.28124434
184	0x3f11868d	0.56845933
185	0x407c6fcc	3.9443235
186	0x3ecf37a1	0.4047213
187	0xbe082aec	-0.13297623
188	0xbe56ae81	-0.20965005
189	0xbe99fe4b	-0.30076823
190	0x3efcbe6c	0.4936403
191	0xbf29b32d	-0.66289026
192	0x3f25b493	0.6472866
193	0x3d2b75df	0.041860458
194	0xbe044f2b	-0.12920825
195	0xbfb6d60b	-1.4284071
196	0x3e476d6e	0.19475338
197	0xbe10911f	-0.1411786
198	0x3e448a6a	0.19193426
199	0x3edde4ed	0.4333872
200	0xbd0c5307	-0.03425887
201	0x3cf1ac30	0.02950105
202	0xbf893696	-1.0719783
203	0x40170564	2.359704
204	0x3ea47f05	0.32128158
205	0x3f429007	0.7600102
206	0x3ea0d5f6	0.3141324
207	0xbe9c1c13	-0.3049017
208	0x3f0acd00	0.54219055
209	0x40070058	2.109396
210	0xbd76184d	-0.06008177
211	0x40024ff5	2.0361302
212	0xbe40fdcb	-0.18846814
213	0x3f301145	0.6877635
214	0xbe9f3899	-0.31097868
215	0xc06b38f2	-3.6753507
216	0xbe15ba9a	-0.14621964
217	0x40657faa	3.585917
218	0x3d4a131d	0.049334634
219	0xbdce4739	-0.100721784
220	0xbe818a3f	-0.25300786
221	0xbdb6f1cc	-0.08932838
222	0x3c6f6c92	0.0146132875
223	0x408bb4dd	4.365828
224	0xbeabc14e	-0.33545917
225	0x3e9b3c63	0.3031951
226	0x3e3b57f7	0.18295275
227	0x3daadb9b	0.08342668
228	0xbed5f007	-0.4178469
229	0xbe9df7f7	-0.30853245
230	0xbf225ef5	-0.6342614
231	0xbea6f30b	-0.32607302
232	0x3e78c03d	0.24292083
233	0xbe1b7aa7	-0.15183507
234	0x3e877ea3	0.26463804
235	0x3ebeb818	0.37249827
236	0x408f7bb6	4.4838514
237	0xbe98d6ee	-0.29851478
238	0x3e09515c	0.13409942
239	0xbded9e01	-0.116024025
240	0xbe08f25c	-0.13373703
241	0x3ee4d130	0.44690847
242	0x3f13c444	0.5772135
243	0xbf1209e8	-0.57046366
244	0xbcedd138	-0.029030427
245	0xbe579cdd	-0.21055932
246	0x3fa504ef	1.2892131
247	0x3eb8ec1f	0.36117646
248	0xbf14a695	-0.58066684
249	0x3f757a83	0.95890063
250	0x3f6178f7	0.880752
251	0x3f1ed454	0.62042737
252	0xbe757b6d	-0.23972864
253	0xbfabca56	-1.3421123
254	0x3fa359f5	1.2761828
255	0xbd722173	-0.05911393

l1.bias f4 [8]
0	0x3f48ecd3	0.78486365
1	0x3fd7c849	1.6857997
2	0x3fc07774	1.5036454
3	0x3ff7f23e	1.9370801
4	0x3f675f5c	0.9037988
5	0x3fafda61	1.3738519
6	0x3f95191c	1.1648288
7	0x3fb1fe34	1.3905702

l2.weight f4 [8, 8]
0	0xbc9b284c	-0.018940113
1	0x3f0c6fa2	0.5485784
2	0xbf3cf071	-0.73804384
3	0x3ec96c27	0.39340326
4	0x3eba43f0	0.36379957
5	0x3ed7191b	0.4201134
6	0xbdb3c43d	-0.08777664
7	0xbe7350f4	-0.2376135
8	0x3f19b0e8	0.6003556
9	0x3e81aafe	0.2532577
10	0x3edf99d9	0.43672064
11	0x3e07faaa	0.13279215
12	0x3edf938e	0.43667263
13	0x3e47fe60	0.1953063
14	0xbe56410e	-0.20923254
15	0xbe900334	-0.28127444
16	0xbed8552a	-0.42252475
17	0x3f2e46f4	0.68077016
18	0x3ea85f51	0.3288522
19	0x3edbfa83	0.42964563
20	0xbd1b4cf8	-0.0379152
21	0xbe670407	-0.2256013
22	0xbeb3a4eb	-0.3508676
23	0x3f1b911b	0.6076829
24	0xbe94ef38	-0.2908876
25	0xbd059337	-0.0326111
26	0xbde811ea	-0.11331542
27	0x3cfb738c	0.030694745
28	0xbe2063c7	-0.15663062
29	0x3f855d47	1.0419091
30	0x3e29d129	0.16583695
31	0x3ecfd260	0.4059019
32	0xbea2c3d1	-0.3179002
33	0xbf040df9	-0.5158382
34	0x3dfc0b16	0.12306802
35	0x3e8c4577	0.27396747
36	0x3f453d9c	0.77047133
37	0x3e783abe	0.24241158
38	0xbe264683	-0.16237836
39	0x3e2d768c	0.16939753
40	0xbec6051b	-0.3867577
41	0xbd6d6ea5	-0.057966847
42	0x3e88217e	0.26588053
43	0x3ecf6076	0.4050328
44	0x3dac2ff1	0.084075816
45	0x3e421a6f	0.18955396
46	0x3f3eb0b3	0.7448837
47	0xbefa09f8	-0.4883573
48	0x3f0c7af6	0.54875124
49	0xbf1e5603	-0.61849993
50	0xbea10f7d	-0.3145713
51	0x3f7d5157	0.9895224
52	0xbe48ae70	-0.19597793
53	0x3d45b0cd	0.048264313
54	0xbdf322e7	-0.118718915
55	0x3ed31f26	0.41234702
56	0x3e8ccc95	0.27499834
57	0x3db23045	0.08700613
58	0xbec6e354	-0.38845313
59	0xbd7fe2c7	-0.06247213
60	0x3ed59bcb	0.41720423
61	0xbe2e7673	-0.17037372
62	0x3f1ce077	0.61280006
63	0x3f04e254	0.5190785

l2.bias f4 [8]
0	0x3f51a56a	0.81893027
1	0xbfcd987c	-1.606216
2	0x3d75a5a6	0.059972428
3	0xbf6a4eb0	-0.9152632
4	0x3fd435ae	1.6578882
5	0xbce53ae0	-0.027982175
6	0x3fa149bc	1.2600627
7	0xbfcf9c2a	-1.6219532

l3.weight f4 [110, 8]
0	0xc0928087	-4.5781894
1	0xbf8cd8d6	-1.1003673
2	0x3fb951b6	1.4478061
3	0xc1b2ef61	-22.366884
4	0x4099fa94	4.811838
5	0xc16edfef	-14.929671
6	0x3f2f71f5	0.6853326
7	0xc18f75cb	-17.932516
8	0x3e3c5a1a	0.18393746
9	0xbeae5d72	-0.34055668
10	0x3f037817	0.5135512
11	0xbfbe4bbb	-1.4866861
12	0x3e372be1	0.17887832
13	0xbf3ad9e0	-0.729887
14	0x3e8ce373	0.2751728
15	0xbedf231a	-0.43581468
16	0x40e9b811	7.303719
17	0xc0e85782	-7.260682
18	0xc1690458	-14.5635605
19	0xc186bbd9	-16.841722
20	0xc0c48847	-6.1416354
21	0x401d5056	2.4580283
22	0x401f815f	2.4922712
23	0xc0da76f8	-6.8270226
24	0x3ee574f0	0.4481578
25	0x3f0a3183	0.539818
26	0xc19afe10	-19.374054
27	0xbeef65ce	-0.46757358
28	0xc1b5ef80	-22.741943
29	0xbb867e58	-0.004104417
30	0x3e01bb78	0.1266917
31	0xbf38a443	-0.72125643
32	0xbdef1a0a	-0.116748884
33	0xbedda495	-0.4328963
34	0xc01fae83	-2.4950264
35	0xbd767ceb	-0.060177725
36	0x3d6dd31d	0.05806266
37	0x3e8c446b	0.2739595
38	0x3e68af03	0.22723012
39	0x3e8e0052	0.2773462
40	0x3e3c4b01	0.18387987
41	0xbe96494c	-0.29352796
42	0x3e8367eb	0.2566522
43	0xbc8d8039	-0.017273055
44	0xbf303000	-0.6882324
45	0x3f2c78dc	0.67371917
46	0x3dc99d8c	0.09844503
47	0xbebb9d62	-0.3664351
48	0x3f20ea2f	0.62857336
49	0xc051a939	-3.2759535
50	0x400d515c	2.2080908
51	0xbfd8d403	-1.6939701
52	0xc193dfed	-18.484339
53	0xc0e60816	-7.188487
54	0xc1929cc5	-18.326548
55	0xc0242be4	-2.5651789
56	0xbcda7244	-0.026665814
57	0xbe4dce4f	-0.20098232
58	0xbc858e5f	-0.01630324
59	0x3ea88836	0.3291642
60	0xbd1896f0	-0.03725332
61	0x3e75f5dc	0.24019569
62	0xc110d57c	-9.05212
63	0xbe372c6c	-0.1788804
64	0xbd71675f	-0.058936473
65	0xbd4cde0e	-0.050016455
66	0x3efc616c	0.49293077
67	0x3e00795e	0.12546298
68	0xc1a0d727	-20.105055
69	0x3e790d4c	0.24321479
70	0xc1af3b39	-21.903917
71	0xbcfea213	-0.031083142
72	0xbe6f5722	-0.23373082
73	0xc2046d9e	-33.107048
74	0x3f8c6d02	1.0970767
75	0xc02669f9	-2.600218
76	0x3f9801ee	1.1875589
77	0x3f5fc755	0.8741353
78	0x3ffe149f	1.9850043
79	0xc09272bb	-4.576505
80	0xbdfca878	-0.1233682
81	0x3ebd2b10	0.36946917
82	0xbeeb6b10	-0.4598012
83	0xbdf92334	-0.121649176
84	0xbe4207a5	-0.18948229
85	0xbf80b458	-1.0055037
86	0xc18995da	-17.19817
87	0x3ec865c6	0.39140147
88	0x3d9a7ebf	0.07543706
89	0xc02a05a1	-2.6565936
90	0x3f22cc1c	0.63592696
91	0xbcbf6643	-0.023364192
92	0xbfc8d152	-1.568888
93	0x3d31bc5e	0.04339253
94	0xbe87376a	-0.26409465
95	0xbd258e4a	-0.0404189
96	0xc107169a	-8.443018
97	0xc1804459	-16.033373
98	0x3ecf0888	0.40436196
99	0xc1c179c4	-24.184456
100	0x4106747f	8.403441
101	0xc12f3e66	-10.952734
102	0x40805768	4.0106697
103	0xc1b49f5f	-22.577818
104	0x40879006	4.236331
105	0xc15c9dcf	-13.7885275
106	0xc119f273	-9.621692
107	0xbf9f0807	-1.2424325
108	0x3fbae23e	1.4600294
109	0xc0b1f9ab	-5.561727
110	0x404d4b76	3.2077308
111	0xc0116a99	-2.2721312
112	0xbf91c0ea	-1.1386998
113	0xc130db72	-11.0535755
114	0xc0ac6064	-5.3867664
115	0xbe8b8acd	-0.27254334
116	0x409686a7	4.703937
117	0xbf157a41	-0.5838967
118	0x402e912a	2.72761
119	0xc1dfeb91	-27.990023
120	0x401b6f89	2.4286826
121	0xc14416fd	-12.255612
122	0x3f0a4fe8	0.5402818
123	0x401f1293	2.4855087
124	0xbff2203e	-1.891609
125	0x3ec202b7	0.37892696
126	0xbfa245f7	-1.2677602
127	0xc1b8661e	-23.049862
128	0x3ec0c617	0.3765113
129	0xbe8feafb	-0.28108963
130	0x3d6fe084	0.058563724
131	0x3e83f64e	0.25773853
132	0xbdd36c14	-0.10323349
133	0xbdf5145f	-0.11966776
134	0xbd500564	-0.05078639
135	0xbd35eb65	-0.044413943
136	0xbdb0b972	-0.08629121
137	0xbf86a9c9	-1.0520564
138	0x3e3632b2	0.17792776
139	0x3f447de8	0.7675462
140	0xc20da0d2	-35.40705
141	0xbed3eafc	-0.41390216
142	0xbf306f86	-0.6892017
143	0x3d28c844	0.041206613
144	0xbf0e221f	-0.55520815
145	0x3ea1cb1e	0.3160028
146	0xc10ee758	-8.93148
147	0x3e704187	0.23462497
148	0xbed9f65c	-0.4257077
149	0x3e90a5f6	0.28251618
150	0xbf052c95	-0.5202115
151	0x3e9b882e	0.30377334
152	0x400b482d	2.1762803
153	0xc109ebe9	-8.620095
154	0xbee5615d	-0.44800845
155	0xc1c20c75	-24.256083
156	0x3fcc7c58	1.5975447
157	0xbecdf1b2	-0.4022346
158	0x4002b739	2.042433
159	0xc0095653	-2.1458938
160	0x3da7f935	0.08201829
161	0xbf0a34e3	-0.5398695
162	0x3f03d05b	0.514898
163	0xc06ae2e9	-3.6700995
164	0xc1ecf4a9	-29.619463
165	0xbd9cc35c	-0.07654449
166	0xbe03a2d0	-0.12855077
167	0x3ef6e6a3	0.48222837
168	0x3f8986d3	1.074427
169	0xc1d19740	-26.198853
170	0xbfaf5434	-1.3697572
171	0xc1a4849b	-20.564749
172	0xbef62d1f	-0.480813
173	0x40858353	4.172281
174	0x404f3391	3.2375224
175	0xc1bd37ff	-23.652342
176	0xc1564a86	-13.393194
177	0xc0cab6f1	-6.3348317
178	0xc00f40d5	-2.238332
179	0xc0ab2266	-5.347949
180	0x40870eed	4.220572
181	0xc18e9d51	-17.826815
182	0x40ac0b4d	5.3763795
183	0xc17b2a79	-15.697869
184	0x402471b9	2.569441
185	0xc1909d91	-18.076937
186	0xc1316a6d	-11.088483
187	0x3f7c8fba	0.9865681
188	0x40e03c39	7.0073514
189	0xc1994e49	-19.163225
190	0xbe05d5f6	-0.13069901
191	0xc1a40170	-20.500702
192	0xc080fbf8	-4.030758
193	0xc109fa55	-8.623616
194	0xc18fe05e	-17.984554
195	0xc062202f	-3.5332143
196	0x408aa92a	4.33315
197	0x4017b3db	2.3703525
198	0xc0083baf	-2.1286428
199	0xc05b8923	-3.4302452
200	0x3cd5bad2	0.02609006
201	0xc104d177	-8.301139
202	0xc0c8021c	-6.2502575
203	0xc0a7c493	-5.242746
204	0xc0f2428a	-7.5706224
205	0xbff1f7b6	-1.890372
206	0x3fb6f149	1.4292384
207	0x40449de8	3.0721378
208	0xc12040be	-10.015806
209	0xbf8a2526	-1.0792587
210	0xc0daf988	-6.8429604
211	0xc0a7d0ef	-5.2442546
212	0x40609c80	3.509552
213	0xc185f15f	-16.742857
214	0xbf41582e	-0.75525177
215	0x3e427acb	0.18992154
216	0x3e48582d	0.19564886
217	0xc178ef0f	-15.558364
218	0xbf6670ce	-0.90015876
219	0xc0371f85	-2.8612988
220	0xbf210c80	-0.629097
221	0xc191a2b1	-18.20444
222	0x4016f3d1	2.3586314
223	0x3fa42568	1.2823915
224	0xc093ab7a	-4.614682
225	0x3cc7f441	0.024408462
226	0x3f26a095	0.6508878
227	0xc1837e93	-16.436804
228	0x402530af	2.5810964
229	0xc053eff1	-3.3115199
230	0xc1829b70	-16.325897
231	0xc1053c0a	-8.327158
232	0x40728216	3.7891898
233	0xbf564b54	-0.8370869
234	0xbfd10049	-1.6328212
235	0xc17a6f55	-15.652181
236	0x3f5ed8e3	0.8704969
237	0xc1ad9b8c	-21.70095
238	0xbe92cb23	-0.28670606
239	0xc0a1444d	-5.0395875
240	0xc161aaf5	-14.104238
241	0xbfaa65b9	-1.3312293
242	0xc182a24e	-16.32925
243	0xc10e7913	-8.904559
244	0x3f526180	0.82180023
245	0xc1343776	-11.26354
246	0x408e4fe0	4.4472504
247	0xc163b5c4	-14.231876
248	0xc12d62e4	-10.836643
249	0xc08ebd5b	-4.4606147
250	0x3f7223ac	0.9458568
251	0xbd6ba782	-0.057532795
252	0xbf88f7f6	-1.0700672
253	0xc0f8e754	-7.7782383
254	0x3fc9a0cc	1.5752196
255	0x3e3ef70c	0.18648928

l3.bias f4 [110]
0	0x4065d354	3.5910234
1	0xbec10208	-0.37696862
2	0x40f81d90	7.7536087
3	0xbdeba118	-0.115053356
4	0x3f782468	0.9693055
5	0xbf52ade6	-0.822966
6	0x3f05f799	0.5233093
7	0x3fc6edaf	1.5541285
8	0xbeb63b80	-0.3559227
9	0xbeb8e07a	-0.36108762
10	0xbdd65e00	-0.10467148
11	0x3f8c72b9	1.097251
12	0x3dc77075	0.09738246
13	0x3fcbc676	1.591994
14	0x3fcd614a	1.6045315
15	0x3f7ef365	0.9959014
16	0xbfff1bd5	-1.9930369
17	0xbf245ede	-0.64207256
18	0x3f11abd1	0.56902796
19	0x3fca10c7	1.578637
20	0x3fd79e12	1.6845114
21	0x402db769	2.7143195
22	0x403643a0	2.8478775
23	0x40e81811	7.252938
24	0x40a893a2	5.2680216
25	0x3fae67c4	1.3625417
26	0x3f979c59	1.1844589
27	0x3fa707b6	1.3049228
28	0x403a0784	2.9067087
29	0x3f997879	1.198989
30	0x40e17383	7.0453506
31	0x3f87e4f4	1.0616746
32	0x409d4d03	4.915651
33	0x4039d90c	2.9038725
34	0x4085606e	4.168021
35	0xbf460b43	-0.77360934
36	0x408d4e7a	4.4158297
37	0x410678d7	8.404502
38	0x3fc401a9	1.5313007
39	0x3ea7ec1d	0.32797328
40	0xc0f1a514	-7.551401
41	0x40d7266e	6.723441
42	0x3f8295f1	1.0202008
43	0xbf8100b3	-1.0078338
44	0xbfac4f71	-1.3461744
45	0x40c0c5b6	6.0241346
46	0x4096102c	4.689474
47	0xbf8406f3	-1.0314621
48	0x3f78ef71	0.9724036
49	0x409a01ba	4.812711
50	0x40623793	3.534642
51	0x40f2a28e	7.582343
52	0x40c54719	6.164929
53	0xbece515d	-0.4029645
54	0xbe6a5ae7	-0.22886239
55	0x3fda42d6	1.7051647
56	0xbea56314	-0.32302153
57	0x3f8a76ed	1.0817543
58	0xbfefccd0	-1.8734379
59	0x4090082c	4.5009975
60	0x4025ee00	2.5926514
61	0x4050b43f	3.2610013
62	0x3f66adc9	0.90108925
63	0xbf534d28	-0.82539606
64	0x3fadfc59	1.3592635
65	0x40340459	2.8127654
66	0xc0bda8bf	-5.926849
67	0xc0ac6fa6	-5.388629
68	0xbee6675b	-0.4500073
69	0x3f8a45ba	1.0802529
70	0x4040b27c	3.0108938
71	0xbfc21d2e	-1.5165155
72	0x41046f64	8.277195
73	0x41064520	8.391876
74	0xbfc21c7b	-1.5164942
75	0x4084845f	4.1411586
76	0x3f974c35	1.1820132
77	0xc00c0013	-2.1875045
78	0x4077c176	3.871183
79	0x3f91d349	1.1392604
80	0x40385f1e	2.8808055
81	0xc060346e	-3.5032
82	0xbea2ef27	-0.31823084
83	0x404cb612	3.1986127
84	0xbf1ef826	-0.62097394
85	0xc0026b13	-2.0377853
86	0xc00214e9	-2.0325263
87	0x4057b3a3	3.3703392
88	0x3fbc34af	1.4703578
89	0xbfa70fea	-1.3051732
90	0xbfd47411	-1.6597921
91	0x404718d6	3.1108909
92	0xbf05d16c	-0.5227268
93	0x3f2eaac5	0.68229324
94	0xbbcee61f	-0.0063140537
95	0xbe256c10	-0.16154504
96	0x3f812d8c	1.0092025
97	0x3f97b85c	1.1853137
98	0x402e65aa	2.724955
99	0xbfaf05e6	-1.3673675
100	0xc0f02747	-7.5047946
101	0x40c90b5d	6.282637
102	0xbe3769e3	-0.17911486
103	0x4017c0bb	2.3711383
104	0x40abea85	5.372378
105	0xc0690110	-3.6406898
106	0x3fbfa0d9	1.4970962
107	0xc0529ccb	-3.29082
108	0x3fc25cb6	1.5184543
109	0x40b2d277	5.5881915
